checkpoints/korea-all-6-200.pth (torch, 198593 bytes, 11 tensors)

model.0.weight f4 [42, 309]
-0.03295191 -0.0062631974 0.015441133 0.033447824 0.029153988 -0.05335626 0.0063248496 -0.039822783
0.012330934 -0.06282817 0.0061712544 0.036036693 -0.0027484614 -0.033068836 -0.02331239 0.013225904
-0.011162932 0.0028298567 0.041942313 -0.05570842 0.048390523 -0.02515991 0.009971449 0.0018222231
0.039243333 -0.058404632 -0.0037292172 0.048797544 0.023552606 -0.02409142 0.02329293 0.013533105
-0.05787108 -0.020834686 -0.03982455 -0.009690237 -0.041325156 -0.02133811 -0.01234627 -0.06013689
-0.062404055 -0.034897164 -0.055429358 -0.0063646627 -0.034195893 0.024635736 0.031005165 0.008282385
0.023745889 -0.027954137 -0.008118118 -0.032382533 0.038090043 0.0238529 -0.049725346 -0.0034890466
0.04424438 -0.010607941 0.0419574 0.023559254 0.0020163315 -0.047961485 -0.027146813 0.019853437
-0.05815205 -0.045078464 -0.05369328 0.018952321 -0.0058649825 0.0048686466 -0.04164081 0.049411617
0.04616311 0.049159933 -0.041773967 -0.0029725416 0.029987875 -0.06298563 0.048174817 0.031502515
-0.022164214 -0.030092984 -0.006461614 -0.04891102 -0.059202075 -0.042003207 0.010857923 0.042933352
0.017198326 0.0323679 -0.03438975 0.031353183 0.017998774 -0.06124638 0.044275686 -0.010116555
0.048065327 0.017552884 -0.048318036 -0.030671358 0.027439808 0.005906008 -0.0021130883 -0.029274493
0.054557234 -0.05093148 -0.04708473 -0.03247888 0.00512803 0.043818053 0.050350733 -0.0050433264
-0.047328603 0.006452022 -0.011753714 0.027098348 0.007044868 0.017373644 0.026375007 0.044845566
0.0462356 -0.022095975 0.0040766858 0.04489043 -0.047331497 0.041365985 0.015973553 -0.008269947
-0.025247611 0.045426827 -0.00017409671 -0.047687154 0.037624948 -0.05113606 -0.052018426 0.03854254
-0.0158581 -0.0025204755 -0.0114886295 -0.05193204 0.046799194 0.016771464 -0.016459748 0.032813683
0.026877742 -0.055464085 -0.030211857 -0.047793042 -0.012394182 -0.0015317487 -0.026552947 -0.004109899
-0.03570071 0.0063600526 0.01783624 -0.0050140154 -0.020604488 -0.005814982 0.045760613 0.02118272
-0.0035304315 -0.06284083 -0.009146338 0.028142337 -0.047239624 -0.0046180184 0.03577424 0.031815972
0.016340658 -0.03942655 0.049464896 0.0357793 -0.022700924 0.012259104 0.046903435 -0.030065097
0.021394012 -0.05155171 -0.025302935 -0.052889194 -0.01791964 -0.024786782 0.0051839272 -0.03665899
-0.019457383 0.046947416 0.0058307596 0.056472316 -0.028947791 -0.062389582 0.045928884 -0.048535537
-0.04877513 0.041384995 -0.050543074 0.019782716 0.0136202 0.042983435 -0.011887872 -0.031374138
-0.03165959 -0.008628516 -0.033590574 -0.04935246 0.049889494 -0.0012465222 -0.03394101 0.012353519
0.025808569 -0.0057483315 0.030830547 -0.023033684 0.031228531 0.017175842 0.04775093 0.028149307
0.024258183 -0.016994119 -0.026628498 0.0066473098 0.03192525 0.026383413 -0.04698268 0.012516775
0.020450555 0.021563308 -0.014769277 -0.019995848 -0.05177766 0.0068908716 -0.012187252 -0.004891314
0.019005472 0.025514046 -0.017828949 -0.044962965 -0.0014086765 -0.02071795 -0.05253811 0.034616113
-0.018486938 0.051468868 0.042546425 -0.041139733 0.02846792 0.040537618 -0.03461676 0.004041785
-0.055331785 -0.027672483 -0.04677712 -0.01945354 -0.021957992 -0.02318698 -0.029147247 0.020925423
00000000: 95f8 06bd 823b cdbb cefc 7c3c 9600 093d
00000010: 58d4 ee3c 188c 5abd af40 cf3b 371d 23bd
00000020: b007 4a3c 0eac 80bd 3c38 ca3b 369b 133d
00000030: 881f 34bb 3073 07bd a0f9 bebc 76b1 583c
00000040: bbe4 36bc 1e75 393b b4cb 2b3d 832e 64bd
00000050: 2435 463d 281c cebc 4a5f 233c a9d7 ee3a
00000060: 9ebd 203d b239 6fbd e265 74bb efdf 473d
00000070: 65f1 c03c 5f5b c5bc d1d0 be3c f5b9 5d3c
00000080: 3a0a 6dbd 81ad aabc 111f 23bd cdc3 1ebc
00000090: 9144 29bd 43cd aebc 0248 4abc 1952 76bd
000000a0: 659b 7fbd 54f0 0ebd e509 63bd a98e d0bb
000000b0: fe10 0cbd e2d0 c93c 8bfe fd3c d7b2 073c
000000c0: bd86 c23c 1300 e5bc db01 05bc 8ca3 04bd
000000d0: 4e04 1c3d 2867 c33c ceac 4bbd 7da8 64bb
000000e0: 9839 353d eecc 2dbc 86db 2b3d 56ff c03c
000000f0: 6e24 043b 4373 44bd fe62 debc ada3 a23c
00000100: d830 6ebd 32a4 38bd 7ced 5bbd e641 9b3c
00000110: 0a2f c0bb 2b89 9f3b 8e8f 2abd d663 4a3d
00000120: 8715 3d3d ed5b 493d 2e1b 2bbd f9ce 42bb
00000130: 22a9 f53c 9cfe 80bd f552 453d c808 013d
00000140: ba91 b5bc 9085 f6bc f2bb d3bb ec56 48bd
00000150: e07d 72bd 8e0b 2cbd 6ee5 313c e2da 2f3d
00000160: 81e3 8c3c 3494 043d 44dc 0cbd 326c 003d
00000170: 2a72 933c 7cdd 7abd 6c5a 353d e8bf 25bc
00000180: 26e0 443d 11cb 8f3c 22e9 45bd 8042 fbbc
00000190: 73c9 e03c 3087 c13b bd7b 0abb 10d1 efbc
000001a0: 6877 5f3d 879d 50bd ebdb 40bd 9308 05bd
000001b0: 0909 a83b 8f7a 333d 923c 4e3d 7d42 a5bb
000001c0: a3db 41bd 7c6b d33b a692 40bc 5bfd dd3c
000001d0: a3d8 e63b 2c53 8e3c 6610 d83c fcaf 373d
000001e0: 8a61 3d3d 9e02 b5bc b895 853b 07df 373d
000001f0: acde 41bd 616f 293d f8da 823c ac7e 07bc
00000200: 14d4 cebc 7b11 3a3d bb8d 36b9 9b53 43bd
00000210: 9e1c 1a3d 0c74 51bd 4611 55bd c8de 1d3d
00000220: d9e8 81bc 902e 25bb ce3a 3cbc b1b6 54bd
00000230: 83b0 3f3d 4f64 893c 98d6 86bc a467 063d
00000240: b62e dc3c 4f2e 63bd db7e f7bc a3c2 43bd
00000250: f810 4bbc f5c4 c8ba 9185 d9bc 55ac 86bb
00000260: e83a 12bd fd67 d03b 4e1d 923c 9c4c a4bb
00000270: beca a8bc 9b8b bebb 7b6f 3b3d 6287 ad3c
00000280: d05e 67bb b1b2 80bd 86da 15bc c28a e63c
00000290: 567e 41bd bf52 97bb 0288 123d 7751 023d
000002a0: d8dc 853c bc7d 21bd b49b 4a3d 518d 123d
000002b0: 4af7 b9bc 69da 483c d11d 403d 144b f6bc
000002c0: 7f42 af3c e327 53bd 1a48 cfbc 57a2 58bd
000002d0: 35cc 92bc a60d cbbc efdd a93b bd27 16bd
000002e0: 1765 9fbc ef4b 403d f50f bf3b 844f 673d
000002f0: eb23 edbc 388c 7fbd ed1f 3c3d 33cd 46bd
00000300: 6ec8 47bd 5083 293d 4106 4fbd 5d0f a23c
00000310: 4227 5f3c 660f 303d 59c5 42bc 2b82 00bd
00000320: 7cad 01bd 9f5e 0dbc 4596 09bd ce25 4abd
00000330: ed58 4c3d 5862 a3ba ba05 0bbd 6a66 4a3c
00000340: 7e6c d33c 805c bcbb 5890 fc3c 23b1 bcbc
00000350: fad2 ff3c 5ab4 8c3c 7b96 433d 6099 e63c
00000360: 19b9 c63c 4037 8bbc 0224 dabc add1 d93b
00000370: 0dc4 023d 0722 d83c e970 40bd 2913 4d3c
00000380: ec87 a73c 89a5 b03c d6fa 71bc 55ce a3bc
00000390: d014 54bd d2cc e13b 0aad 47bc 5147 a0bb
000003a0: 5db1 9b3c d502 d13c 040e 92bc 162b 38bd
000003b0: 57a3 b8ba b1b8 a9bc 3432 57bd a0c9 0d3d
000003c0: eb71 97bc 05d1 523d 2945 2e3d 2382 28bd
000003d0: 8e35 e93c c60a 263d 4eca 0dbd f370 843b
000003e0: 95a3 62bd 67b1 e2bc 5e99 3fbd 085d 9fbc
000003f0: 3fe1 b3bc 9ff2 bdbc 35c6 eebc cb6b ab3c

model.0.bias f4 [42]
-0.011260544 0.015080862 -0.034955177 -0.084931485 -0.10734667 0.051947672 -0.08044752 -0.06944147
-0.027983714 0.070796125 -0.14469902 -0.05359007 -0.037421826 -0.03336016 0.06846796 0.03195156
-0.077553846 -0.036750235 0.018594285 -0.040908236 0.030025102 -0.037624426 -0.046960164 -0.05746135
-0.057851057 -0.01990718 -0.028983254 -0.0019210116 -0.04984188 -0.10503127 -0.062247023 -0.022582375
-0.057329144 0.026418574 -0.06962497 0.046836 0.041512918 -0.051888704 -0.067541264 0.018658616
-0.034933787 -0.09111091
00000000: 257e 38bc b815 773c 292d 0fbd 8ff0 adbd
00000010: 92d8 dbbd 15c7 543d abc1 a4bd 5437 8ebd
00000020: 1a3e e5bc 8ffd 903d fb2b 14be 4381 5bbd
00000030: a147 19bd aaa4 08bd ee38 8c3d a4df 023d
00000040: 8dd4 9ebd 6a87 16bd 0b53 983c 658f 27bd
00000050: 34f7 f53c 121c 1abd 4d59 40bd 985c 6bbd
00000060: 3bf5 6cbd 6214 a3bc 4a6e edbc 74ca fbba
00000070: 0027 4cbd a21a d7bd bcf6 7ebd acfe b8bc
00000080: f7d1 6abd c46b d83c 8997 8ebd 1bd7 3f3d
00000090: 7309 2a3d 4089 54bd 1353 8abd f4d9 983c
000000a0: bb16 0fbd 5b98 babd

model.2.weight f4 [84, 42]
0.04254292 -0.13115652 -0.13202551 -0.13991797 -0.19881293 -1.3555543 0.0847609 0.006825718
0.05189685 0.75154513 -0.17214772 -0.142413 -0.051250093 -0.117567755 -0.066449195 -0.20006858
-0.33045653 -0.14106575 0.1346467 -0.016916411 -0.7573882 -0.2282182 0.051489845 -0.44719943
0.12181322 0.013137849 -0.1310434 0.0367909 -0.048796944 -0.33386195 -0.026615988 -1.0457084
0.015341993 -1.2434996 0.145849 1.066098 0.050650325 -0.1743363 0.14684758 -0.07869684
0.08432024 0.11734394 0.1107053 0.15882929 0.12005633 0.07803103 -0.10384498 -0.08843995
-0.015942495 -0.15151262 -0.0024817868 0.016094036 -0.087910526 0.10763116 0.05250902 0.13771988
-0.11248114 -0.17549463 -0.07494713 -0.00085667765 -0.103304766 0.009308239 -0.068830274 -0.090301104
-0.13579993 0.04211927 0.08040134 -0.06421218 0.09406138 0.081685394 -0.17433006 -0.019910907
0.058214463 0.058169782 0.055323392 -0.1355775 -0.01609844 -0.0656294 -0.11625802 -0.08560123
-0.054372262 -0.016977463 0.10101859 -0.0047679674 0.07285062 -0.011579933 0.12736003 -0.05220331
-0.15000859 -0.024011644 -0.17763598 -0.108437106 0.032801528 -0.121691234 -0.13334039 0.10143432
-0.12836398 0.0145328585 -0.1446518 -0.21809915 0.01258915 -0.102465354 -0.024556404 0.0065258015
0.041222204 -0.0306138 0.084151745 -0.06899903 -0.14520068 -0.003765791 0.07074358 -0.02202438
-0.061238594 -0.14305381 0.13551304 -0.14930063 0.115318716 0.020583522 -0.11566275 0.04999845
0.1475001 -0.13484052 0.12999894 0.12993883 -0.023047205 0.08287845 -5.922736e-05 -0.12463777
0.01959033 -0.03850915 -0.12391735 0.10714361 6.91138e-05 0.088650644 0.11108585 0.16845806
-0.09041506 -0.012748288 -0.27287424 -0.12313096 -0.018523352 -0.6082891 -0.064597875 -0.045116138
0.061270647 0.08518701 0.015129966 0.098189525 -0.16190927 -0.5121948 0.034832347 -0.09253275
-0.119838946 0.04435713 -0.20594321 -0.28682667 -0.026833203 -0.15437894 -0.092350736 0.16078496
-0.116712436 0.013130693 -0.066411026 -0.00713847 -0.017205173 0.068610564 0.11557471 -0.12985301
-0.14024013 0.030789886 -0.040854257 0.067680374 0.037294514 -0.08694514 -0.07695525 -0.007840229
-0.034347836 0.063461706 0.05862308 -0.14895129 0.0403075 -0.10361355 -0.15611415 -0.17765722
-0.0139641715 -0.09324037 -0.088852555 -0.047542352 -0.020754142 -0.09383149 0.109037794 -0.06677607
-0.047912024 -0.09675979 0.06971896 0.077259466 -0.024498347 -0.056503713 -0.063319944 -0.1451433
0.021899603 -0.20550995 0.099291325 -0.087386966 0.15078901 -0.02679408 -0.098439604 -0.12086461
-0.0370869 0.03274396 -0.06350745 -0.062923394 -0.11810315 -0.18245754 0.02172065 -0.18503922
-0.09359693 -0.028801443 0.188962 -0.5875375 -0.008954955 -0.17255509 0.5230508 -0.13070703
-0.11737423 -0.076256685 -0.06427793 0.021951143 -0.038250614 -0.10473873 -0.30090126 0.060032144
-0.15695669 -0.16334896 -0.033096425 0.055840217 0.12190626 0.07883043 -0.0017830151 -0.09506536
-0.068152174 -0.02233325 -0.15534736 -0.52687544 -0.15662664 0.05159996 -0.10262216 0.036109395
0.11830675 0.08805321 0.08776202 0.074221686 0.019374235 0.063929565 0.11376461 -0.06420543
00000000: 7c41 2e3d e54d 06be b231 07be a846 0fbe
00000010: 9e95 4bbe ce82 adbf 1f97 ad3d 46aa df3b
00000020: cb91 543d 4365 403f 7e47 30be b7d4 11be
00000030: 9eeb 51bd 5dc7 f0bd 8416 88bd c7de 4cbe
00000040: 9931 a9be 8a73 10be d3e0 093e 4994 8abc
00000050: 31e4 41bf 08b2 69be 04e7 523d 53f7 e4be
00000060: 3679 f93d 2240 573c 3e30 06be 0eb2 163d
00000070: 4edf 47bd f4ef aabe c609 dabc c6d9 85bf
00000080: fc5c 7b3c ff2a 9fbf 7159 153e e675 883f
00000090: b776 4f3d 3785 32be 365f 163e cf2b a1bd
000000a0: 17b0 ac3d 0552 f03d 76b9 e23d 25a4 223e
000000b0: 18e0 f53d bcce 9f3d adac d4bd 0120 b5bd
000000c0: d699 82bc 2026 1bbe 79a5 22bb a4d7 833c
000000d0: 6f0a b4bd ba6d dc3d b313 573d 7106 0d3e
000000e0: 835c e6bd ddb4 33be e27d 99bd aa92 60ba
000000f0: 7391 d3bd 9681 183c e3f6 8cbd c9ef b8bd
00000100: 230f 0bbe 4185 2c3d 75a9 a43d ad81 83bd
00000110: 41a3 c03d ac4a a73d 9483 32be 331c a3bc
00000120: 4a72 6e3d 7043 6e3d c89a 623d d4d4 0abe
00000130: e0e0 83bc b568 86bd af18 eebd b34f afbd
00000140: 73b5 5ebd 5214 8bbc d6e2 ce3d 9c3c 9cbb
00000150: b532 953d c2b9 3dbc ab6a 023e 23d3 55bd
00000160: da9b 19be 11b4 c4bc 35e6 35be 4614 debd
00000170: e55a 063d 4139 f9bd 628a 08be ccbc cf3d
00000180: d971 03be 3a1b 6e3c 9a1f 14be 6255 5fbe
00000190: b942 4e3c 5bd9 d1bd 832a c9bc 64d6 d53b
000001a0: 9dd8 283d cbc9 fabc c057 ac3d 5d4f 8dbd
000001b0: 7daf 14be 7dcb 76bb 03e2 903d 796c b4bc
000001c0: 52d5 7abd b37c 12be eec3 0a3e 44e2 18be
000001d0: 382c ec3d c69e a83c 98e0 ecbd 2dcb 4c3d
000001e0: 440a 173e a213 0abe 711e 053e af0e 053e
000001f0: 7ecd bcbc 2dbc a93d e56a 78b8 1642 ffbd
00000200: e67b a03c c5bb 1dbd 61c8 fdbd 1c6e db3d
00000210: 30f1 9038 788e b53d fa80 e33d 4580 2c3e
00000220: 882b b9bd 32de 50bc 2cb6 8bbe 162c fcbd
00000230: 49be 97bc d6b8 1bbf e44b 84bd b3cb 38bd
00000240: eef6 7a3d 8776 ae3d ade3 773c 9717 c93d
00000250: 8bcb 25be 331f 03bf 5dac 0e3d cf81 bdbd
00000260: 1f6e f5bd d2af 353d c7e2 52be f2da 92be
00000270: 4ed1 dbbc 8315 1ebe 6222 bdbd d0a4 243e
00000280: ee06 efbd 1e22 573c 8102 88bd d4e9 e9bb
00000290: ddf1 8cbc b283 8c3d 6fb2 ec3d 30f8 04be
000002a0: 1c9b 0fbe 123b fc3c cb56 27bd 029c 8a3d
000002b0: 22c2 183d 4b10 b2bd b79a 9dbd 4e74 00bc
000002c0: 51b0 0cbd 36f8 813d c11e 703d b086 18be
000002d0: 7a19 253d 5733 d4bd 63dc 1fbe c6eb 35be
000002e0: fbc9 64bc cff4 bebd 54f8 b5bd c5bb 42bd
000002f0: 9704 aabc b92a c0bd 354f df3d e4c1 88bd
00000300: 663f 44bd ff29 c6bd d0c8 8e3d 363a 9e3d
00000310: c2b0 c8bc 7070 67bd e3ad 81bd 72a0 14be
00000320: cc66 b33c 3371 52be 4059 cb3d f0f7 b2bd
00000330: 6f68 1a3e 427f dbbc b49a c9bd dd87 f7bd
00000340: 6fe8 17bd 881e 063d 3210 82bd fbdd 80bd
00000350: 10e0 f1bd 26d6 3abe 81ef b13c ec7a 3dbe
00000360: bfaf bfbd 01f1 ebbc 417f 413e dc68 16bf
00000370: ceb7 12bc 48b2 30be a8e6 053f 10d8 05be
00000380: e661 f0bd 772c 9cbd 26a4 83bd e2d2 b33c
00000390: adac 1cbd 4281 d6bd bb0f 9abe 44e4 753d
000003a0: 41b9 20be f344 27be 1e90 07bd b6b8 643d
000003b0: fda9 f93d d971 a13d 0fb4 e9ba a1b1 c2bd
000003c0: 5e93 8bbd 38f4 b6bc 6113 1fbe 4fe1 06bf
000003d0: bc62 20be 7b5a 533d 912b d2bd 72e7 133d
000003e0: cf4a f23d 3e55 b43d 93bc b33d 8a01 983d
000003f0: b7b6 9e3c 81ed 823d 6bfd e83d 237e 83bd

model.2.bias f4 [84]
0.10056024 -0.056575492 -0.030699 -0.17302366 -0.047999766 -0.015303385 -0.021802826 0.13933213
0.18984623 -0.09693652 0.098421805 -0.25882524 -0.28691503 0.5350979 -0.068841755 -0.11138416
-0.15425733 0.18378384 0.066348724 -0.08574003 -0.032287113 -0.12990981 0.22939822 0.20948766
0.48529693 -0.115589224 -0.4061645 0.024551583 -0.023713885 0.08716221 -0.10377278 -0.17383449
0.5105255 -0.11073035 0.0027277349 -0.077992745 0.44998506 -0.37733585 -0.24286823 -0.09520748
-0.2993045 -0.0787684 0.008319107 -0.32571188 0.020690694 -0.06861154 -0.033526964 0.06400404
-0.22477198 0.020998223 -0.051018137 -0.098801516 0.30013213 0.3406288 -0.05558281 -0.5573615
0.17103404 -0.52575225 -0.11405086 -0.07264989 0.114361726 0.21598682 -0.1501609 -0.2472165
0.4266126 -0.21761878 0.068087615 0.31367803 -0.05315281 -0.13450284 -0.3377738 0.20222102
-0.2092251 0.23053531 0.22911735 0.076313816 -0.22832404 -0.2679128 -0.029340211 -0.079154976
-0.09633515 -0.09191715 0.5087602 0.3815206
00000000: 87f2 cd3d b4bb 67bd 787c fbbc 1d2d 31be
00000010: 679b 44bd 0dbb 7abc d79b b2bc 15ad 0e3e
00000020: 0d67 423e a786 c6bd 5f91 c93d be84 84be
00000030: 87e6 92be 2dfc 083f e8fc 8cbd 611d e4bd
00000040: a2f5 1dbe d531 3c3e d7e1 873d 7898 afbd
00000050: 7e3f 04bd 1407 05be 5ee7 6a3e ef83 563e
00000060: d778 f83e 0bba ecbd cbf4 cfbe 6720 c93c
00000070: 9f43 c2bc 1a82 b23d d386 d4bd ab01 32be
00000080: cdb1 023f 98c6 e2bd ccc3 323b a9ba 9fbd
00000090: 7164 e63e 2a32 c1be 73b2 78be 24fc c2bd
000000a0: 703e 99be 5451 a1bd dd4c 083c b5c3 a6be
000000b0: 887f a93c 3584 8cbd 9253 09bd 8d14 833d
000000c0: a02a 66be 7704 ac3c 65f8 50bd 7358 cabd
000000d0: ebaa 993e e666 ae3e cdaa 63bd 3eaf 0ebf
000000e0: 8c23 2f3e b397 06bf 7f93 e9bd 77c9 94bd
000000f0: 7b36 ea3d a62b 5d3e c7c3 19be 5226 7dbe
00000100: f76c da3e 75d7 5ebe 8571 8b3d 689a a03e
00000110: c3b6 59bd 1dbb 09be b0f0 acbe 0713 4f3e
00000120: 1b3f 56be 7311 6c3e bd9d 6a3e 6b4a 9c3d
00000130: c7cd 69be de2b 89be e25a f0bc 011c a2bd
00000140: 5d4b c5bd 0f3f bcbd 1c3e 023f ab56 c33e

model.4.weight f4 [168, 84]
-0.065157175 0.010045676 -0.035742007 -0.07872878 0.0054444703 0.017271066 -0.45624152 0.25438577
-0.12803364 0.054670222 -0.24121879 0.05469281 0.08086904 -0.45674148 0.03856239 0.011214184
0.041322935 -0.16187023 -0.10244989 -0.05151553 -0.1593411 -0.06464427 -0.16836601 -0.07730059
0.017686835 -0.35619628 0.21222444 0.024675133 0.1251208 0.0952062 0.077562146 -0.086379215
-0.14591333 -0.06791214 0.12601353 -0.21131803 -0.10147231 -0.14924413 -0.0014620596 0.027870055
-0.02256598 -0.04905835 -0.003174963 -0.12466004 -0.26396248 -0.06752414 -0.031771116 -0.052126583
-0.024453968 0.084028654 -0.22974938 -0.090084426 -0.08416885 -0.23243359 -0.1991323 0.0064700823
-0.9041066 0.10089598 -0.0072962013 -0.10805534 -0.577058 -0.09491084 0.108330764 0.0025029506
-0.08338592 -0.32022354 -0.037075333 -0.36663488 -0.0047986107 0.028087856 0.02767404 0.33323166
-0.06662243 -0.3951194 0.24295853 0.12392918 -0.020223858 -0.05513074 0.04928335 -0.12628776
-0.048578266 -0.08359527 -0.24799751 0.22302072 0.036536776 0.055741742 -0.07082172 0.0471282
0.044270787 0.09537924 -0.06584997 -0.021129185 -0.1441116 0.09047093 -0.09191068 -0.10004298
0.0539793 0.03548165 -0.016700337 0.085310854 -0.038003117 0.030633554 -0.09630726 -0.054605734
-0.055717297 -0.09981091 -0.09397721 -0.021711024 -0.12758268 -0.11852904 0.08039782 -0.18122777
0.0042145513 -0.11260884 -0.069166705 -0.030224733 0.009892883 -0.01564043 0.072530635 0.041419476
0.0024552997 -0.068868674 0.036090087 0.016077941 0.043983947 -0.06383797 -0.087710686 0.026133485
-0.021786345 -0.028238067 0.011713467 0.024273347 0.005221554 -0.10101023 -0.111022875 -0.09783792
-0.04573822 0.082805455 -0.027347224 -0.077532396 -0.11570067 -0.08526278 -0.11824354 0.054650933
-0.11485018 0.030834796 -0.019514306 -0.014000112 0.03966978 0.006636915 -0.018466977 -0.05907971
-0.06315902 -0.14620085 -0.08013474 -0.1771785 -0.018417919 0.03885264 -0.066857554 -0.012271865
-0.013564375 0.043692965 -0.09192982 -0.11916873 0.026039803 0.06633387 -0.02823831 -0.07170291
-0.09837769 -0.071068905 -0.069355026 0.068697885 0.00140212 -0.016398817 0.03810722 -0.061205883
0.054498047 0.077972434 -0.13532622 -0.036232084 -0.0124352425 -0.060490496 -0.08830194 -0.018198257
-0.0056509958 -0.13562158 -0.019995108 -0.03572496 -0.043392416 -0.013721344 -0.13678809 -0.10610008
-0.06640595 0.031900827 -0.01167532 0.051171027 0.006857286 -0.06265915 0.031203557 -0.044057123
-0.018281825 -0.034467556 0.09550715 -0.019744143 0.019548219 0.0018740073 -0.10158193 -0.040882416
-0.12760907 -0.08507088 -0.0015600709 0.11481269 0.04455357 -0.022452023 -0.09732356 0.08702765
-0.08705871 0.07298343 -0.05883822 0.0155633055 -0.1141572 -0.001317876 -0.07422705 -0.056948844
-0.026923541 -0.21895136 0.06316044 -0.0069082472 -0.030879822 0.039085805 -0.05816683 0.022200668
0.047453087 -0.029953985 -0.028824633 0.044911653 -0.066710286 0.047374114 -0.09228432 -0.2621383
-0.09084946 -0.12364327 -0.11427235 -0.012592748 0.020876307 -0.024237687 -0.0069051157 -0.039081044
-0.08202635 0.046175137 -0.114035346 0.063573495 0.0061428007 0.07341347 0.10277654 0.070187844
00000000: 2071 85bd 9e96 243c 3666 12bd 8e3c a1bd
00000010: 8767 b23b 0d7c 8d3c 7d98 e9be da3e 823e
00000020: 401b 03be e2ed 5f3d 0f02 77be 9105 603d
00000030: ab9e a53d 05da e9be 99f3 1d3d b2bb 373c
00000040: 3d42 293d 4fc1 25be 3fd1 d1bd f301 53bd
00000050: 502a 23be 3764 84bd 2468 2cbe c64f 9ebd
00000060: fbe3 903c 5c5f b6be 5d51 593e 8123 ca3c
00000070: ab1f 003e 78fb c23d e7d8 9e3d 96e7 b0bd
00000080: 4e6a 15be 8515 8bbd b109 013e c163 58be
00000090: b7d0 cfbd 74d3 18be 94a2 bfba be4f e43c
000000a0: 4adc b8bc 69f1 48bd 0a13 50bb c34d ffbd
000000b0: 1726 87be 194a 8abd 6e22 02bd af82 55bd
000000c0: b053 c8bc 3717 ac3d 6c43 6bbe 2f7e b8bd
000000d0: b860 acbd 1203 6ebe 56e9 4bbe fc02 d43b
000000e0: 8873 67bf 8da2 ce3d f914 efbb 1e4c ddbd
000000f0: 13ba 13bf 9d60 c2bd 85dc dd3d 8b08 243b
00000100: 3dc6 aabd 57f4 a3be 4edc 17bd 91b7 bbbe
00000110: aa3d 9dbb 8118 e63c abb4 e23c 579d aa3e
00000120: 5771 88bd 174d cabe 1fca 783e 95ce fd3d
00000130: 81ac a5bc c5d0 61bd 57dd 493d 9451 01be
00000140: 01fa 46bd ff33 abbd 0ff3 7dbe 8b5f 643e
00000150: 96a7 153d 7451 643d fa0a 91bd 8009 413d
00000160: 4955 353d 3156 c33d 59dc 86bd 1d17 adbc
00000170: fe91 13be d348 b93d ab3b bcbd 55e3 ccbd
00000180: 6619 5d3d 3555 113d 25cf 88bc 75b7 ae3d
00000190: 28a9 1bbd 38f3 fa3c be3c c5bd 43aa 5fbd
000001a0: d237 64bd aa69 ccbd 2077 c0bd 51db b1bc
000001b0: 09a5 02be 5abf f2bd 9da7 a43d c693 39be
000001c0: 381a 8a3b 779f e6bd 46a7 8dbd dc99 f7bc
000001d0: c215 223c 5c20 80bc f18a 943d 78a7 293d
000001e0: 18e9 203b 050b 8dbd 33d3 133d e3b5 833c
000001f0: 8328 343d 7bbd 82bd a9a1 b3bd e415 d63c
00000200: 4779 b2bc 8553 e7bc d7e9 3f3c e6d8 c63c
00000210: 9219 ab3b 74de cebd f65f e3bd 3f5f c8bd
00000220: 0058 3bbd e895 a93d 4907 e0bc 4ec9 9ebd
00000230: 79f4 ecbd 419e aebd ab29 f2bd a8d9 5f3d
00000240: 9236 ebbd 4199 fc3c 77dc 9fbc ba60 65bc
00000250: c77c 223d 7a7a d93b 0f48 97bc 91fd 71bd
00000260: 8459 81bd adb5 15be af1d a4bd 486e 35be
00000270: 2de1 96bc f223 1f3d 9dec 88bd ef0f 49bc
00000280: 1d3d 5ebc 65f7 323d b445 bcbd bc0e f4bd
00000290: 6d51 d53c 0dda 873d 0754 e7bc fad8 92bd
000002a0: 3e7a c9bd 938c 91bd 020a 8ebd 7ab1 8c3d
000002b0: 57c7 b73a d056 86bc 5116 1c3d 05b3 7abd
000002c0: 5839 5f3d 03b0 9f3d f592 0abe 1868 14bd
000002d0: 30bd 4bbc e2c4 77bd a6d7 b4bd 8314 95bc
000002e0: fd2b b9bb 62e0 0abe c8cc a3bc 5654 12bd
000002f0: 3fbc 31bd 7dcf 60bc 2d12 0cbe 004b d9bd
00000300: d8ff 87bd 71aa 023d d749 3fbc b698 513d
00000310: 16b3 e03b 7153 80bd 9a9e ff3c 3e75 34bd
00000320: c4c3 95bc da2d 0dbd 4199 c33d 78be a1bc
00000330: 9623 a03c 40a1 f53a 300a d0bd 5274 27bd
00000340: f4ab 02be a439 aebd 4b7b ccba ea22 eb3d
00000350: ce7d 363d 4eed b7bc 9351 c7bd 8d3b b23d
00000360: d64b b2bd 5678 953d 5800 71bd 3cfd 7e3c
00000370: 40cb e9bd 95bc acba 5a04 98bd 3143 69bd
00000380: c28e dcbc c934 60be 435a 813d 945e e2bb
00000390: aef7 fcbc 7018 203d 5840 6ebd 2dde b53c
000003a0: 2b5e 423d 0f62 f5bc a321 ecbc 48f5 373d
000003b0: 679f 88bd 5c0b 423d 90ff bcbd fe36 86be
000003c0: 480f babd af38 fdbd 9f07 eabd d051 4ebc
000003d0: ca04 ab3c 1d8e c6bc 4f44 e2bb 7213 20bd
000003e0: 6efd a7bd 2422 3d3d 5d8b e9bd d232 823d
000003f0: 8c49 c93b cd59 963d 827c d23d a5be 8f3d

model.4.bias f4 [168]
-0.472946 -0.17976661 -0.14840882 -0.09487712 -0.82360774 -0.10707794 0.042821422 -0.25864533
0.007578429 0.036563884 -0.20134607 -0.14996284 -0.35278696 -0.6912149 -0.20292117 -0.01661077
-0.097498596 -0.24547887 -0.18834184 -0.08423896 0.14704478 -0.28489086 -0.15364486 -0.11332484
-0.009565561 -0.015980631 -0.24426897 -0.084848195 0.047991894 -0.24794286 -0.017508224 -0.20581497
-0.52183104 -0.16809523 -0.28136823 -0.19776876 -0.22832058 0.013488827 -0.1493717 -0.12644398
0.073011495 -0.09576123 0.011013185 -0.05237265 -0.22051632 0.034851693 -0.28737348 -0.08393721
-0.16328415 -0.0347167 -0.27509844 -0.2379833 -0.08917725 -0.7157461 -0.15102221 -0.04719854
-0.2252766 -0.19415846 0.2684983 -0.17321807 -0.15638505 -0.007428939 0.4454501 -0.115053326
0.28262353 -0.20327915 0.22240724 -0.057273902 -0.5885328 -0.20140015 -0.11713499 -0.12505898
0.05425082 -0.07439048 -0.16917685 -0.1746375 0.06004432 -0.14848204 0.18477252 -0.008554766
-0.007233479 -0.4550655 -0.14209923 -0.09537547 -0.07573872 -0.034801703 0.69528174 0.37751052
-0.16353604 -0.16794656 -0.46874386 -0.14498922 0.02071824 0.03714945 -0.16041645 -0.103223
-0.11725499 -0.09410769 -0.09741256 -0.0673734 -0.31085572 -0.055486757 -0.35266367 -0.16410853
-0.066179715 0.6766643 -0.03357641 -0.054194394 -0.09603549 0.56798583 -0.124553636 -0.1210451
0.07335683 -0.050424073 -0.17985415 -0.15361732 -0.34352034 0.27691934 0.16054522 -0.054674402
0.43413305 0.2823279 0.054337 -0.54161215 0.015103194 -0.2094018 -0.19130482 -0.14427803
0.01565439 -0.4757766 0.140087 -0.06980068 -0.030417152 -0.23524652 -0.267714 0.26947534
0.61985487 -0.07332064 -0.102642566 -0.81455255 -0.01727924 0.013837556 -0.13296379 0.11711242
-0.20236686 -0.37283048 -0.2413473 0.050278056 0.11116182 -0.43204632 -0.10221689 -0.10218782
-0.26567128 -0.121414445 0.12949872 -0.14288917 -0.075257055 0.08009813 -0.15193409 -0.18115355
-0.09783739 0.3234171 -0.2992717 -0.14688873 -0.15790163 -0.5197861 -0.039890572 -0.07399882
00000000: fa25 f2be bd14 38be 7bf8 17be ef4e c2bd
00000010: f5d7 52bf ae4b dbbd 8465 2f3d 296d 84be
00000020: 7854 f83b 03c4 153d aa2d 4ebe dc8f 19be
00000030: 7ea0 b4be 76f3 30bf 91ca 4fbe 4f13 88bc
00000040: 58ad c7bd d05e 7bbe afdc 40be 7a85 acbd
00000050: e892 163e 37dd 91be 1455 1dbe db16 e8bd
00000060: dfb8 1cbc d0e9 82bc a521 7abe e4c4 adbd
00000070: 2693 443d bce4 7dbe 686d 8fbc 29c1 52be
00000080: b896 05bf 2821 2cbe 7f0f 90be e583 4abe
00000090: dfcc 69be 3e00 5d3c e5f4 18be 887a 01be
000000a0: 0d87 953d 771e c4bd a570 343c b484 56bd
000000b0: 08cf 61be a6c0 0e3d 9e22 93be 46e7 abbd
000000c0: f633 27be 1933 0ebd b4d9 8cbe e5b1 73be
000000d0: 90a2 b6bd 233b 37bf 91a5 1abe 4253 41bd
000000e0: e9ae 66be 7ad1 46be 9c78 893e 1460 31be
000000f0: 6723 20be 756e f3bb 0912 e43e 14a1 ebbd
00000100: 08b4 903e 6928 50be b9be 633e 0a98 6abd
00000110: 16aa 16bf d73b 4ebe 78e4 efbd 760f 00be
00000120: 1c36 5e3d 095a 98bd b23c 2dbe 2cd4 32be
00000130: 08f1 753d ad0b 18be 0235 3d3e 4a29 0cbc
00000140: d206 edbb 58fe e8be 7682 11be 3754 c3bd
00000150: e71c 9bbd 3b8c 0ebd fcfd 313f 0f49 c13e
00000160: fe75 27be 2ffa 2bbe 32ff efbe 0e78 14be
00000170: 4cb9 a93c 062a 183d 3644 24be 9566 d3bd
00000180: 6223 f0bd 88bb c0bd 3c80 c7bd 11fb 89bd
00000190: 7b28 9fbe 1546 63bd 5590 b4be 110c 28be
000001a0: 3b89 87bd df39 2d3f 6b87 09bd f1fa 5dbd
000001b0: 41ae c4bd 8567 113f fa15 ffbd 7ee6 f7bd
000001c0: 1b3c 963d 7989 4ebd b02b 38be dc4d 1dbe
000001d0: e6e1 afbe 5fc8 8d3e f765 243e 44f2 5fbd
000001e0: b046 de3e 488d 903e 7990 5e3d 18a7 0abf
000001f0: 6373 773c 6d6d 56be 69e5 43be 9fbd 13be
00000200: a33d 803c fe98 f3be f772 0f3e a9f3 8ebd
00000210: 642d f9bc 77e4 70be cf11 89be acf8 893e
00000220: cfae 1e3f 2229 96bd 4436 d2bd 8486 50bf
00000230: 318d 8dbc ebb6 623c a927 08be a3d8 ef3d
00000240: 4239 4fbe a3e3 bebe bf23 77be 5df0 4d3d
00000250: cfa8 e33d 2d35 ddbe 1757 d1bd d947 d1bd
00000260: 1106 88be 23a8 f8bd 509b 043e 8a51 12be
00000270: 5f20 9abd 7d0a a43d 9c94 1bbe 5180 39be
00000280: f85e c8bd ed96 a53e 243a 99be 006a 16be
00000290: f7b0 21be b410 05bf 4c64 23bd b18c 97bd

model.6.weight f4 [84, 168]
-0.11592911 -0.06330649 -0.05373967 -0.07931345 0.017808726 -0.043934185 0.037381392 -0.02630092
-0.055888135 -0.044878125 0.0668875 -0.026933054 0.0070432294 -0.022717094 -0.04821008 0.050159626
0.0044816127 -0.04162323 0.07519921 -0.035448935 -0.0020689615 -0.07242973 -0.09549305 -0.051059414
-0.081594646 0.00051268854 -0.080772 -0.043295912 0.033689756 -0.0586921 -0.05582873 0.0072274976
0.052049153 -0.07612932 -0.031821407 0.06082 -0.043083448 0.031321064 0.08680768 -0.023743538
0.02501664 0.04399718 -0.017271848 -0.08172473 -0.08340193 -0.120266646 0.038432475 -0.059218246
0.069544144 -0.04183678 -0.054235015 -0.03894163 -0.011832983 0.08740955 0.026063826 -0.005217376
-0.0465427 -0.0029625644 -0.04020195 0.020630648 0.0049073366 0.006193521 -0.020521339 0.06699037
-0.0959247 0.03536682 -0.107878976 0.0061501563 -0.11735457 -0.024035761 0.04484366 -0.023970902
-0.0873044 -0.07757674 -0.06785839 0.026650239 -0.08254642 0.07348012 0.055893496 0.034156293
-0.06807688 -0.14127694 0.049632136 0.006287746 -0.10750427 -0.07498736 -0.1514312 -0.078690074
0.025255103 0.036711622 -0.10178451 -0.06398385 0.034056943 0.024629707 0.02905218 0.008871961
-0.022172501 -0.04591794 0.060262788 0.026692616 -0.047973312 0.021958979 -0.060331054 0.016846506
-0.070182376 -0.18625675 3.2466105e-06 -0.0068511954 -0.03198922 -0.20861292 -0.07358412 -0.06990691
-0.16377404 0.0350696 0.0502907 -0.007888615 -0.07650452 -0.007924534 -0.020192523 -0.03203344
-0.043753486 0.006770682 0.032427058 -0.07746236 -0.07051348 0.053474046 0.03551616 0.012491461
0.039833922 -0.13650574 0.025181653 0.034041338 -0.028834395 0.017844602 -0.03731189 -0.034410097
-0.15284407 -0.020772599 -0.009658133 -0.04375801 0.034039225 -0.061385345 -0.0071339407 0.0017851574
0.06699826 -0.18874799 0.043037705 -0.121184394 -0.046794243 0.086917 -0.070082344 -0.09155716
0.01900909 0.012055317 -0.042643096 -0.06142244 -0.060079794 -0.057061188 -0.049396202 -0.05643114
0.07003663 -0.22142328 0.084179506 -0.077063315 -0.06327513 0.015924046 -0.06484506 -0.08168202
-0.014931296 -0.009510877 -0.08760849 -0.008219592 0.009790902 0.016329234 0.03766896 0.06721242
0.044580195 0.07397945 -0.021086315 -0.060241133 0.0027940446 0.028164698 -0.020203695 0.031471465
-0.055467494 0.039237943 -0.0970664 0.07070089 -0.0089424765 -0.03557896 -0.008067505 -0.07086644
-0.04668155 -0.066514745 -0.06980936 0.006229013 -0.06125736 -0.094836056 -0.03503342 -0.02449769
-0.09176889 -0.06740209 0.041466415 0.012188729 0.0011456488 -0.0075643263 -0.06516978 -0.056370907
-0.06601637 0.005835679 0.013112664 -0.0036319823 -0.059834294 -0.09839096 0.013466486 -0.045932632
0.02355508 -0.05735953 0.009773401 -0.027642699 -0.024371063 -0.056634206 -0.012658236 0.035444643
0.07480226 0.022922734 -0.09487715 0.016638944 -0.021829752 -0.006310914 -0.09093948 -0.06905172
-0.075670436 -0.057571456 -0.052862924 -0.02951146 -0.08606616 0.0036767358 0.0034300026 -0.06315612
0.06450895 -0.004503613 -0.026271518 0.063779406 -0.073251165 -0.039903913 -0.041852195 0.0054094037
-0.11093379 -0.032919977 0.0069041895 -0.012582641 -0.009971233 -0.013526235 -0.13704892 -0.07337268
00000000: 3e6c edbd d5a6 81bd 211e 5cbd 176f a2bd
00000010: 9be3 913c 55f4 33bd 3b1d 193d 0775 d7bc
00000020: f5ea 64bd 20d2 37bd 50fc 883d b5a2 dcbc
00000030: e4ca e63b 3319 babc ef77 45bd 2e74 4d3d
00000040: 7eda 923b 1f7d 2abd 0b02 9a3d e732 11bd
00000050: 6a97 07bb 0a56 94bd dc91 c3bd ad23 51bd
00000060: 181b a7bd f265 063a ca6b a5bd 0e57 31bd
00000070: 45fe 093d 2167 70bd abac 64bd a5d4 ec3b
00000080: 7e31 553d b0e9 9bbd 2a57 02bd 641e 793d
00000090: 4578 30bd 844a 003d 3ac8 b13d cf81 c2bc
000000a0: b2ef cc3c 6336 343d b17d 8dbc 4c5f a7bd
000000b0: a2ce aabd 5c4e f6bd 5f6b 1d3d d58e 72bd
000000c0: 296d 8e3d 0b5d 2bbd 8925 5ebd 4281 1fbd
000000d0: 21df 41bc c703 b33d ce83 d53c 86f6 aabb
000000e0: 8fa3 3ebd 9527 42bb cdaa 24bd 9b01 a93c
000000f0: b9cd a03b 05f3 ca3b 5e1c a8bc 3f32 893d
00000100: 2b74 c4bd ccdc 103d a7ef dcbd 4087 c93b
00000110: 9857 f0bd a5e6 c4bc fcad 373d a05e c4bc
00000120: a6cc b2bd 8ee0 9ebd 57f9 8abd 9a51 da3c
00000130: 190e a9bd bf7c 963d 94f0 643d 78e7 0b3d
00000140: e46b 8bbd e7aa 10be 114b 4b3d 7009 ce3b
00000150: 332b dcbd f992 99bd c810 1bbe 4328 a1bd
00000160: cae3 ce3c ed5e 163d 6674 d0bd f709 83bd
00000170: 4b7f 0b3d 3dc4 c93c d6fe ed3c b45b 113c
00000180: 1ba3 b5bc 7314 3cbd 1dd6 763d 79aa da3c
00000190: aa7f 44bd 51e3 b33c b21d 77bd af01 8a3c
000001a0: c7bb 8fbd 17ba 3ebe 58e0 5936 fe7f e0bb
000001b0: 2107 03bd a09e 55be 45b3 96bd 5b2b 8fbd
000001c0: 62b4 27be 24a5 0f3d 9ffd 4d3d 403f 01bc
000001d0: 67ae 9cbd e8d5 01bc ca6a a5bc 7f35 03bd
000001e0: db36 33bd 99dc dd3b 3cd2 043d 96a4 9ebd
000001f0: 5f69 90bd 9a07 5b3d 6579 113d fca8 4c3c
00000200: e528 233d 29c8 0bbe c149 ce3c ee6e 0b3d
00000210: 1c36 ecbc d82e 923c 5ad4 18bd 9af1 0cbd
00000220: 2883 1cbe 4c2b aabc 253d 1ebc 993b 33bd
00000230: b76c 0b3d 336f 7bbd d5c3 e9bb f1fb e93a
00000240: 6236 893d 2747 41be 4e48 303d 862f f8bd
00000250: 52ab 3fbd 8a01 b23d 5587 8fbd 5282 bbbd
00000260: f3b8 9b3c aa83 453c 87aa 2ebd 1996 7bbd
00000270: 3b16 76bd feb8 69bd ac53 4abd 5724 67bd
00000280: 5d6f 8f3d c9bc 62be 4e66 ac3d 5fd3 9dbd
00000290: 6496 81bd 2573 823c 7dcd 84bd e748 a7bd
000002a0: 65a2 74bc 82d3 1bbc 146c b3bd 78ab 06bc
000002b0: 056a 203c e3c4 853c c44a 1a3d aaa6 893d
000002c0: b999 363d 8a82 973d 35bd acbc 68bf 76bd
000002d0: 4a1c 373b a7b9 e63c 3882 a5bc 39e8 003d
000002e0: e231 63bd f7b7 203d c0ca c6bd a1cb 903d
000002f0: 7783 12bc 3ebb 11bd 922d 04bc 6d22 91bd
00000300: 2735 3fbd e238 88bd 36f8 8ebd c01c cc3b
00000310: ffe8 7abd 6839 c2bd 347f 0fbd 61af c8bc
00000320: 54f1 bbbd 1b0a 8abd b0d8 293d 3cb3 473c
00000330: 9829 963a 2bde f7bb bc77 85bd 2ee5 66bd
00000340: 9733 87bd 3939 bf3b 80d6 563c 8d06 6ebb
00000350: ce14 75bd 3381 c9bd 89a2 5c3c db23 3cbd
00000360: 95f6 c03c d4f1 6abd 9d20 203c f172 e2bc
00000370: d3a5 c7bc 45f9 67bd 7d64 4fbc 672e 113d
00000380: ed31 993d 75c8 bb3c f44e c2bd 654e 883c
00000390: 4fd4 b2bc c9cb cebb 7a3e babd fd6a 8dbd
000003a0: 1af9 9abd 0cd0 6bbd cb86 58bd 04c2 f1bc
000003b0: 7443 b0bd 64f5 703b e5c9 603b ff57 81bd
000003c0: 451d 843d 0b93 93bb 5e37 d7bc c79e 823d
000003d0: b504 96bd 4972 23bd 356d 2bbd 5e41 b13b
000003e0: 4131 e3bd 19d7 06bd 8a3c e23b 6c27 4ebc
000003f0: 625e 23bc 249d 5dbc 8d56 0cbe 6a44 96bd

model.6.bias f4 [84]
-0.2272082 -0.16199645 -0.123909235 0.022423767 -0.26525664 0.067539535 -0.038143937 -0.012832224
0.36783975 -0.27228534 -0.20028608 -0.0790599 -0.22207208 -0.24448755 -0.011742286 -0.17348655
-0.15831469 -0.30589384 -0.0054452554 -0.4046187 0.070666626 -0.19116363 0.33150965 -0.3699532
-0.15472792 -0.36289197 -0.0850837 0.09914844 -0.07381887 -0.14192836 0.4236332 -0.30226827
0.20421472 0.24464475 -0.30886647 -0.7984564 -0.31332454 -0.11491099 1.0017058 -0.23827201
-0.044589885 -0.14271148 -0.29437056 -0.18787466 -0.015402158 0.11285931 0.18075281 -0.04234724
-0.0030023677 -0.41328937 -0.397996 -0.19679959 -0.35018125 -0.1724254 -0.06531771 -0.1698524
-0.29169124 -0.17039682 -0.1913867 1.1714764 -0.10911562 -0.110432625 -0.112690195 0.031203734
-0.2380983 1.1857411 -0.28310665 -0.22994457 -0.19671197 -0.39753678 -0.20965213 -0.22489718
-0.13342266 0.005958096 -0.15990427 -0.22588924 -0.22914833 0.039626725 -0.3080489 0.38339812
-0.07781671 -0.32723716 -0.24050473 0.6584832
00000000: 44a9 68be 66e2 25be 20c4 fdbd 0cb2 b73c
00000010: b8cf 87be 2b52 8a3d d13c 1cbd 403e 52bc
00000020: 7e55 bc3e fc68 8bbe cb17 4dbe 28ea a1bd
00000030: dd66 63be f25a 7abe b862 40bc 75a6 31be
00000040: 3f1d 22be 1e9e 9cbe 1d6e b2bb 2f2a cfbe
00000050: aab9 903d 66c0 43be a2bb a93e 816a bdbe
00000060: ff70 1ebe facc b9be 5d40 aebd 560e cb3d
00000070: 592e 97bd ab55 11be 73e6 d83e e8c2 9abe
00000080: aa1d 513e 2784 7a3e bf23 9ebe a367 4cbf
00000090: 136c a0be 7456 ebbd e537 803f 94fd 73be
000000a0: e2a3 36bd f522 12be bdb7 96be 3762 40be
000000b0: 5559 7cbc c822 e73d 4417 393e 4d74 2dbd
000000c0: 5fc3 44bb aa9a d3be 22c6 cbbe d585 49be
000000d0: f54a b3be 4990 30be 4bc5 85bd caed 2dbe
000000e0: 8e58 95be 817c 2ebe e0fa 43be f0f2 953f
000000f0: 0378 dfbd 802a e2bd 1eca e6bd f99e ff3c
00000100: 0ad0 73be 5dc6 973f 5bf3 90be 9776 6bbe
00000110: dd6e 49be f189 cbbe 0caf 56be 724b 66be
00000120: f39f 08be 223c c33b f2bd 23be 824f 67be
00000130: dca5 6abe a24f 223d 96b8 9dbe c24c c43e
00000140: 5e5e 9fbd a18b a7be df46 76be 5b92 283f

model.8.weight f4 [42, 84]
0.1782746 -0.10714791 -0.07450939 0.10682555 -0.05168687 0.052350163 0.037434682 0.19932368
-0.30742928 -0.123331755 -0.087010734 -0.13269877 -0.15548109 0.08838123 -0.11821859 -0.06548764
0.041158564 -0.0036189482 -0.120665416 -0.027958056 -0.1689419 -0.021247115 -0.1580487 -0.05708106
0.042601783 -0.013898156 -0.012679026 -0.061734255 0.13928571 -0.074900724 -0.06640754 0.049080156
0.092287414 0.034795802 -0.01714313 -0.07205279 0.039155353 -0.019520218 0.02228364 -0.14655326
-0.004841453 0.066555485 0.14665401 0.10310722 0.06984751 0.045155123 0.08445244 0.020498898
-0.0098892 -0.08612553 -0.19751309 -0.057082158 -0.06200135 0.13393827 0.061073106 0.05944899
-0.05461135 -0.012756485 -0.014882466 -0.32820305 0.003908904 -0.028362988 0.052180953 0.06086016
-0.022816591 -0.4213265 -0.07026896 0.15649848 -0.10092034 0.0627525 0.0029849631 0.10676684
-0.016802717 0.02256262 -0.109490596 0.032797966 0.009547809 -0.11495149 -0.13754523 -0.12419208
-0.09575592 0.06110238 -0.08080085 0.07813578 -0.054730065 0.12770724 0.11992257 -0.094838
0.0056397174 -0.027329069 -0.054672007 -0.0007529628 -0.047169387 0.050366994 -0.075189024 -0.05852507
-0.08297078 0.05545865 -0.030247867 -0.008817905 0.007551609 -0.067650795 -0.063384965 -0.118001305
-0.09901446 -0.017530171 -0.07859236 -0.05052722 0.0060183606 0.04865448 -0.094739795 -0.100819305
0.13672997 0.072354645 -0.025305765 -0.039751176 -0.063834846 -0.06822556 -0.025356889 -0.058068343
-0.088888325 -0.015321299 -0.1363807 0.06558165 -0.13763443 0.043204647 -0.15853705 -0.012745997
-0.08639532 -0.11137907 -0.003406731 0.014529863 -0.024004012 -0.05209175 -0.06659953 0.071820654
-0.09469386 0.03121372 -0.06718262 -0.06855301 0.0012715415 -0.033628516 -0.038937356 -0.0934961
-0.0075921053 -0.047026828 0.047607854 -0.12076306 -0.08565314 -0.04747069 -0.016985891 0.07943228
0.06837124 -0.16482875 -0.048791707 0.13287832 0.079322115 0.03778784 -0.076967105 -0.023034375
0.027814377 -0.07214438 0.022699054 -0.009046298 -0.011801462 -0.11226003 -0.12534048 -0.0023430488
-0.099784344 0.071033604 0.020002456 0.04523817 -0.0045565865 -0.18017866 -0.111226805 -0.08548537
0.042778082 -0.055745505 0.11674489 -0.015709378 0.05482269 -0.012216807 -0.12474177 -0.01056138
-0.03899496 -0.08384376 -0.040180627 -0.02907626 -0.044535425 -0.11754319 0.07690528 -0.13118017
0.054185055 -0.11330165 0.05763206 -0.108548164 -0.06125559 0.058600992 -0.082756236 -0.16222852
0.09917295 0.0006334066 -0.039075747 -0.094420016 -0.123535775 -0.12823194 -0.032581683 0.010395633
-0.09892094 -0.012283511 -0.10062688 -0.048432644 0.2245496 -0.13809821 -0.15003087 0.0068775252
-0.1287024 -0.10612312 -0.14199628 0.027119892 -0.115947194 -0.09911386 0.027720392 0.085736334
0.019056823 0.0077458294 0.057501096 -0.013196855 0.06388223 0.021802133 -0.055256274 0.08277084
-0.05937803 -0.19835299 -0.23595603 -0.2013967 -0.05920633 -0.08704862 -0.060506094 0.09361552
-0.07976404 -0.13631989 -0.0326215 -0.04279308 0.004945926 0.028072776 0.028837265 0.06492922
0.036879256 -0.061520282 -0.035430733 -0.011313317 0.05420876 0.09850142 -0.15461606 0.034440044
00000000: 9e8d 363e 5d70 dbbd 6198 98bd 5bc7 da3d
00000010: 9db5 53bd 206d 563d 1c55 193d 821b 4c3e
00000020: 5f67 9dbe 5c95 fcbd af32 b2bd 30e2 07be
00000030: 6f36 1fbe 3801 b53d 971c f2bd 621e 86bd
00000040: e295 283d e02b 6dbb 6e1f f7bd 4b08 e5bc
00000050: 1bff 2cbe 6e0e aebc 85d7 21be d4cd 69bd
00000060: 357f 2e3d 17b5 63bc b1bb 4fbc 0fdd 7cbd
00000070: eaa0 0e3e 8d65 99bd ad00 88bd 4608 493d
00000080: 2f01 bd3d 0b86 0e3d c06f 8cbc 6a90 93bd
00000090: 5d61 203d dde8 9fbc 2e8c b63c 0f12 16be
000000a0: 0da5 9ebb 3e4e 883d 782c 163e e129 d33d
000000b0: 360c 8f3d 94f4 383d 67f5 ac3d 4eed a73c
000000c0: 5006 22bc 9562 b0bd df40 4abe fbce 69bd
000000d0: 21f5 7dbd 1d27 093e cb27 7a3d c980 733d
000000e0: 27b0 5fbd 9300 51bc 96d5 73bc 3b0a a8be
000000f0: 4316 803b 7f59 e8bc b2bb 553d 8148 793d
00000100: dce9 babc 1bb8 d7be 2ce9 8fbd 2341 203e
00000110: 53af cebd 6284 803d 5f9f 433b 93a8 da3d
00000120: daa5 89bc 3ed5 b83c 9b3c e0bd 2957 063d
00000130: 6a6e 1c3c b06b ebbd a8d8 0cbe 6b58 febd
00000140: ae1b c4bd 7d46 7a3d eb7a a5bd a705 a03d
00000150: a22c 60bd b0c5 023e f799 f53d 6d3a c2bd
00000160: 61cd b83b 36e1 dfbc c1ef 5fbd 7a62 45ba
00000170: b034 41bd 9f4d 4e3d b4fc 99bd fcb7 6fbd
00000180: 96ec a9bd 9c28 633d 60ca f7bc f978 10bc
00000190: 7d73 f73b 808c 8abd facf 81bd abaa f1bd
000001a0: 18c8 cabd 6f9b 8fbc 08f5 a0bd a1f5 4ebd
000001b0: ab35 c53b ec49 473d f006 c2bd 5a7a cebd
000001c0: f102 0c3e ac2e 943d 094e cfbc 21d2 22bd
000001d0: d8bb 82bd d8b9 8bbd 40b9 cfbc 12d9 6dbd
000001e0: 150b b6bd 3006 7bbc 62a7 0bbe ac4f 863d
000001f0: 0af0 0cbe 5bf7 303d 8957 22be 96d4 50bc
00000200: 08f0 b0bd b61a e4bd 7643 5fbb aa0e 6e3c
00000210: 10a4 c4bc 295e 55bd 5665 88bd b516 933d
00000220: dbee c1bd eab3 ff3c 0b97 89bd 8565 8cbd
00000230: daa9 a63a 0ebe 09bd c77c 1fbd e27a bfbd
00000240: 32c7 f8bb 349f 40bd 7400 433d a052 f7bd
00000250: ea6a afbd a070 42bd ff25 8bbc 64ad a23d
00000260: 3806 8c3d dec8 28be d0d9 47bd 4111 083e
00000270: a273 a23d 6cc7 1a3d eea0 9dbd 96b2 bcbc
00000280: fada e33c 6fc0 93bd 5ef3 b93c ed36 14bc
00000290: eb5a 41bc 96e8 e5bd 4159 00be d68d 19bb
000002a0: bc5b ccbd 117a 913d 31dc a33c a94b 393d
000002b0: 6b4f 95bb c180 38be e1ca e3bd f412 afbd
000002c0: 1238 2f3d 6655 64bd f217 ef3d f4b0 80bc
000002d0: c28d 603d 0129 48bc 9d78 ffbd a309 2dbc
000002e0: 2eb9 1fbd 47b6 abbd 7194 24bd 5631 eebc
000002f0: c76a 36bd 7cba f0bd 8480 9d3d 1854 06be
00000300: 26f1 5d3d b20a e8bd 980f 6c3d 804e debd
00000310: 24e7 7abd 9807 703d 1a7c a9bd 3c1f 26be
00000320: 301b cb3d 330b 263a e40d 20bd 485f c1bd
00000330: 5300 fdbd 3c4f 03be 5f74 05bd 7252 2a3c
00000340: 1097 cabd c840 49bc 7715 cebd 4f61 46bd
00000350: 55f0 653e 9e69 0dbe b1a1 19be dd5c e13b
00000360: 90ca 03be 1457 d9bd 7967 11be 892a de3c
00000370: b975 edbd 35fc cabd e015 e33c 8896 af3d
00000380: 0e1d 9c3c bad0 fd3b 4586 6b3d 9f37 58bc
00000390: b0d4 823d 639a b23c 6754 62bd c283 a93d
000003a0: 6136 73bd 0c1d 4bbe 759e 71be f03a 4ebe
000003b0: 5682 72bd 8c46 b2bd 3dd5 77bd 7eb9 bf3d
000003c0: 545b a3bd 7197 0bbe 1f9e 05bd cc47 2fbd
000003d0: 6f11 a23b e1f8 e53c 213c ec3c 9cf9 843d
000003e0: b40e 173d b1fc 7bbd d11f 11bd 7e5b 39bc
000003f0: 010a 5e3d 1dbb c93d ac53 1ebe 0111 0d3d

model.8.bias f4 [42]
-0.3789724 -0.25797498 -0.1861104 1.3377901 -0.09915619 -0.09910863 -0.14649475 -0.25275213
-0.37901673 0.6586091 1.4622492 -0.32998148 -0.37584904 -0.123849146 -0.43463877 -0.13006085
-0.1917513 -0.41932377 -0.30718085 -0.34257442 -0.30323997 0.9699526 0.39680108 -0.31532225
-0.2737897 -0.3121881 -0.34950843 0.6467408 -0.5121928 -0.31206864 -0.07693289 -0.257979
-0.39367568 -0.17613573 -0.17733169 -0.33517617 -0.2633669 -0.1827243 -0.37941596 -0.31569898
-0.3512034 -0.012591586
00000000: ac08 c2be 4c15 84be ba93 3ebe b53c ab3f
00000010: 6712 cbbd 77f9 cabd b802 16be ba68 81be
00000020: 7b0e c2be 9b9a 283f fb2a bb3f 55f3 a8be
00000030: 496f c0be 9fa4 fdbd f988 debe ac2e 05be
00000040: 745a 44be 9bb1 d6be cf46 9dbe ea65 afbe
00000050: 4542 9bbe d04e 783f 8329 cb3e eb71 a1be
00000060: 2a2e 8cbe 1ed7 9fbe c5f2 b2be ce90 253f
00000070: 111f 03bf 76c7 9fbe fe8e 9dbd d315 84be
00000080: dc8f c9be ed5c 34be 7096 35be 369c abbe
00000090: 07d8 86be 141c 3bbe cf42 c2be 4ca3 a1be
000000a0: efd0 b3be f14c 4ebc

model.10.weight f4 [1, 42]
-0.019415472 -0.0057351696 -0.014839368 0.2455782 -0.022010863 0.013015256 0.023688568 0.010482787
0.020911738 -0.117899425 0.21338965 0.014356305 0.0049388222 -0.045178942 -0.08854279 0.1018913
-0.003014207 0.0115681505 0.00498495 -0.051649977 -0.01588144 -0.044491902 -0.03642808 -0.020634212
-0.021205679 -0.023617558 -0.045825377 -0.21650131 0.01095298 -0.015854523 -0.059206292 -0.0017629653
0.0028481744 -0.094534874 -0.022905514 0.025249701 -0.008076088 -0.04383309 0.01960463 0.06847555
-0.0004429301 -0.21304393
00000000: 320d 9fbc 17ee bbbb d220 73bc da78 7b3e
00000010: 2050 b4bc f13d 553c 870e c23c ffbf 2b3c
00000020: 184f ab3c 4175 f1bd d182 5a3e b536 6b3c
00000030: d8d5 a13b 8e0d 39bd ec55 b5bd 63ac d03d
00000040: 008a 45bb 5788 3d3c cb58 a33b ed8e 53bd
00000050: cb19 82bc 243d 36bd 9c35 15bd 1409 a9bc
00000060: 88b7 adbc 9c79 c1bc 64b3 3bbd 85b2 5dbe
00000070: 2174 333c 58e1 81bc 4c82 72bd 4d13 e7ba
00000080: 70a8 3a3b 809b c1bd 58a4 bbbc 76d8 ce3c
00000090: 9151 04bc 548a 33bd e499 a03c e93c 8c3d
000000a0: 1239 e8b9 3028 5abe
