checkpoints/korea-medium-6-200.pth (torch, 161089 bytes, 11 tensors)

model.0.weight f4 [42, 86]
0	0x3da739b6	0.08165304
1	0x3d6bd5c2	0.057576902
2	0xbd4f6f86	-0.050643466
3	0x3d343523	0.043995988
4	0x3d507c94	0.050900057
5	0xbbbc7d48	-0.0057522394
6	0xbd07c4ee	-0.03314679
7	0x3e06af0d	0.13152714
8	0xbc448d92	-0.011996644
9	0x3d8e090b	0.069353186
10	0xbbdcdc33	-0.006740117
11	0xbdd9a782	-0.10627653
12	0x3d98bd90	0.07458031
13	0x3e81c0dc	0.25342453
14	0x3d9187bf	0.0710597
15	0x3e9ff06d	0.31238118
16	0xbcf752a5	-0.030190775
17	0x3e0c2931	0.13687588
18	0xbc628f2e	-0.013828082
19	0xbccf5d11	-0.025312932
20	0x3d26d0a7	0.04072633
21	0xbdbe0816	-0.09278886
22	0xbb451bd9	-0.0030076413
23	0x3d82daa6	0.0638936
24	0xbe0af8c8	-0.13571465
25	0x3d198b6d	0.037486482
26	0xbe3f6851	-0.18692137
27	0x3c5ddb0a	0.0135409925
28	0xbd0e154b	-0.034688275
29	0xbb073ebc	-0.0020636758
30	0xbc87776e	-0.01653644
31	0xbdec11e9	-0.115268536
32	0x3d9142a8	0.07092792
33	0xbd7d4194	-0.06183012
34	0x3dcf42ef	0.101201884
35	0xbdec9abf	-0.11552953
36	0xbd3312a7	-0.04371896
37	0xbd2066b3	-0.03916044
38	0xbe12e3ef	-0.14344762
39	0xbd55d7b0	-0.05220765
40	0xbe217663	-0.15767817
41	0xbd61ac9a	-0.055096246
42	0xbe283ea0	-0.1643014
43	0xbd1ab3b0	-0.03776902
44	0xbe4eec91	-0.2020743
45	0x3c3184c0	0.010834873
46	0xbde5e9d7	-0.11226242
47	0x3cf879ee	0.030331578
48	0x3ca390fe	0.019966599
49	0x3d7569bf	0.0599153
50	0xbd13bf30	-0.036071002
51	0xbd24ed03	-0.040265094
52	0xbccc709e	-0.024956044
53	0x3d416602	0.047216423
54	0xbe5684af	-0.20949052
55	0xbe979254	-0.29603827
56	0xbe236e9a	-0.1596016
57	0x3e0bee8f	0.13665222
58	0x3de5171e	0.1118605
59	0xbe502d85	-0.20329864
60	0x3e776e72	0.24163225
61	0xbdbd52c1	-0.092443
62	0x3e5f402f	0.21801828
63	0xbe8972b3	-0.2684532
64	0xbe9628f1	-0.2932811
65	0xbb47205d	-0.003038428
66	0xbd3cc069	-0.046081934
67	0xbe0feeb8	-0.14055908
68	0xbd38e78f	-0.045142706
69	0xbe4aa8fd	-0.19791026
70	0xbe682e28	-0.22673857
71	0xbedce529	-0.43143585
72	0x3e8c3f9e	0.27392286
73	0x3bc9e8f8	0.0061618052
74	0xbe1ad718	-0.15121114
75	0x3dfba4aa	0.122872666
76	0xbe2f5db3	-0.17125587
77	0xbd973daf	-0.07384812
78	0xbda90713	-0.082533024
79	0x3e1c9adb	0.15293448
80	0xbe05031f	-0.12989472
81	0xbe0a7760	-0.135221
82	0x3d918b7d	0.071066834
83	0xbe4ca97b	-0.19986527
84	0xbde0ed41	-0.109827526
85	0x3e31d21c	0.17365307
86	0x3d9f3c55	0.07775179
87	0xbd940bd2	-0.07228817
88	0x3dd14c0a	0.102195814
89	0xbe7dd730	-0.24789119
90	0xbef3b087	-0.47595617
91	0xbecbe749	-0.39824894
92	0xbebb17a7	-0.36541483
93	0xbf2fc8e2	-0.686659
94	0xbf4c8d75	-0.79903346
95	0x3b8f0475	0.004364545
96	0x3f609383	0.87725085
97	0xbe9becd9	-0.30454138
98	0xbf307dfe	-0.6894225
99	0xbf179b82	-0.5922166
100	0x3f14a151	0.5805865
101	0x3fed1d64	1.8524594
102	0x3eaad730	0.333673
103	0xbf8d910f	-1.1059893
104	0x3d674fb8	0.05647251
105	0xbe899247	-0.26869413
106	0x3e0afc09	0.13572706
107	0xbe71bc80	-0.23607063
108	0xbf0d5951	-0.5521441
109	0xbf14b8e1	-0.580946
110	0x3e73ebf4	0.23820478
111	0x3f1b7151	0.6071978
112	0xbf254a8d	-0.6456688
113	0x3c9f5200	0.01944828
114	0x3d821d44	0.06353238
115	0x3e5f65d1	0.21816184
116	0x3f5b3eba	0.8564259
117	0x3f1aa28a	0.60404265
118	0x3f8d1dbf	1.1024703
119	0x3e6c48ec	0.23074692
120	0xbf35eb9f	-0.71062654
121	0xbf4297d3	-0.76012915
122	0xbe5f87b2	-0.21829107
123	0xbf8bcc67	-1.0921754
124	0x3de35ea6	0.11102037
125	0x3edd33f6	0.43203706
126	0x3f268e84	0.6506121
127	0xbea6c67c	-0.32573307
128	0xbf39b076	-0.72534883
129	0x3e9ac65e	0.30229467
130	0xbf12eeb2	-0.5739547
131	0xbe5b4d42	-0.2141619
132	0xbf827d3b	-1.0194467
133	0x3edd41a5	0.43214145
134	0xbefa2295	-0.4885451
135	0x3f430128	0.7617364
136	0xbe57a8ac	-0.21060437
137	0xbe816e00	-0.25279236
138	0x3d94ded9	0.07269067
139	0x3da1939f	0.078894846
140	0x3d24ce44	0.040235773
141	0xc0633029	-3.5498145
142	0x3fa6ab12	1.3020957
143	0x3ef72b9c	0.4827546
144	0xbebcbf83	-0.36864862
145	0x3d37860e	0.04480558
146	0xbe6ad0b1	-0.22931172
147	0xbf3bc6e2	-0.73350346
148	0x3f3604ac	0.7110088
149	0xbf48a249	-0.7837263
150	0xbfc77cb6	-1.5584934
151	0x3f95b8a5	1.1696974
152	0xbed8a4cf	-0.4231324
153	0x3eb94497	0.36185142
154	0xbf202323	-0.62553614
155	0xbcece1b0	-0.02891621
156	0x3d94bd54	0.07262674
157	0x3f5b257f	0.8560409
158	0xbf43834a	-0.76372206
159	0x3e84ad79	0.259136
160	0xbe78b3ad	-0.24287291
161	0xbfac21f8	-1.3447866
162	0xbe32cae2	-0.17460206
163	0xc0097760	-2.147911
164	0xbe96c922	-0.29450327
165	0xbf5ad8be	-0.8548697
166	0x3d9401e8	0.07226926
167	0x3d09af1e	0.03361427
168	0xbe1db461	-0.1540084
169	0xbec1fb9d	-0.37887278
170	0xbed2c72f	-0.4116759
171	0xb80261f5	-3.1085645e-05
172	0x3da27ec7	0.07934337
173	0x3c4b8b15	0.012423296
174	0xbdaf0a84	-0.085469276
175	0xbda5f9d0	-0.081042886
176	0xbdbc3081	-0.09188939
177	0xbdb96f68	-0.09054452
178	0xbe040829	-0.12893738
179	0xbc9657cb	-0.01835241
180	0x3d9c3ead	0.07629142
181	0x3cbedb9c	0.023298077
182	0xbb3db0f9	-0.0028944595
183	0xbc8367f4	-0.01604078
184	0xbe01bec2	-0.12670425
185	0x3b6a4fb2	0.0035753069
186	0x3da0fcca	0.07860716
187	0x3d9974d0	0.07492983
188	0x3d80e631	0.062939055
189	0x3d61623c	0.055025324
190	0xbcd5ae8b	-0.026084205
191	0xbde76f9d	-0.113005854
192	0xbda0f984	-0.07860091
193	0xbdcafb06	-0.0991116
194	0xbd43c9ba	-0.047799803
195	0x3d9f79fc	0.077869385
196	0xbddb2ec6	-0.10702281
197	0xbdd68897	-0.10475271
198	0xbb93535f	-0.0044960226
199	0xbce33de3	-0.02773947
200	0x3cf2bb71	0.029630395
201	0x3c0d98a5	0.00864235
202	0xbe061d61	-0.13097145
203	0xbe0ec593	-0.13942556
204	0x3d903d28	0.07042915
205	0x3d66e47a	0.056370236
206	0xbd9c053d	-0.076181866
207	0xbc9e7fb9	-0.019348012
208	0xbde4ecc4	-0.11177972
209	0xbde3f269	-0.111302204
210	0xbd99899c	-0.0749695
211	0x3cee767f	0.029109238
212	0x3d14dc0b	0.03634266
213	0xbd1145f6	-0.03546711
214	0xbdb1fe4d	-0.08691082
215	0xbdebdc90	-0.11516678
216	0xbdf8a371	-0.12140549
217	0xbb615603	-0.0034383542
218	0x3d5f8db9	0.054578517
219	0xbd75b00d	-0.05998235
220	0xbad2798d	-0.0016057953
221	0xbdc09bb2	-0.094046965
222	0xbcb5af6a	-0.02217837
223	0xbdfaec3d	-0.1225209
224	0xbe2201e8	-0.1582104
225	0x3b2056d5	0.0024465818
226	0x3c797e54	0.015227873
227	0xbd20fe1e	-0.039304845
228	0xbdb94c95	-0.0904781
229	0xbd82305d	-0.06356881
230	0xbcfce28c	-0.030869745
231	0xbddd58e4	-0.1080797
232	0xbdc68494	-0.09693256
233	0x3d977c19	0.073967166
234	0x3dcab74c	0.09898242
235	0x3cf56636	0.029955965
236	0x3d3d6c2f	0.04624575
237	0x3c0609ad	0.008181018
238	0xbd562860	-0.0522846
239	0xbd3cd920	-0.046105504
240	0x3bfd04be	0.0077215126
241	0x3cea9504	0.02863551
242	0xbdeb210d	-0.11480913
243	0xbe0cab41	-0.13737203
244	0x3c0ccaa7	0.008593238
245	0x3d26b734	0.04070206
246	0xbd088886	-0.033333324
247	0xbd2e63ed	-0.042575765
248	0xbdbf3d2c	-0.093378395
249	0x3d6c7489	0.057728324
250	0xbdccde38	-0.10003322
251	0xbc672ab9	-0.014109307
252	0xbc2943ad	-0.010331077
253	0x3c03d497	0.008046291
254	0xbddd4221	-0.10803629
255	0x3b9db059	0.004812282

model.0.bias f4 [42]
0	0x3b9e1c07	0.0048251185
1	0x3d44f395	0.04808386
2	0xbd717923	-0.058953416
3	0xbbb29b9b	-0.0054506785
4	0xbab463a4	-0.0013762605
5	0xbdad87ba	-0.084731534
6	0xbe23db01	-0.16001512
7	0x3cb39361	0.021920862
8	0xbc8b1bcd	-0.01698103
9	0x3c648562	0.013947817
10	0xbdd5fba5	-0.10448388
11	0xbc4bd6c1	-0.012441338
12	0xba71a12a	-0.0009217436
13	0xbde21e06	-0.11040883
14	0xbdb94181	-0.09045697
15	0xbd4965d1	-0.049169365
16	0xbe70edd4	-0.23528224
17	0xbcee8f11	-0.029120954
18	0x3e7b3a5b	0.2453398
19	0x3e5039a5	0.2033449
20	0x3df2f4da	0.11863108
21	0xbdd6d0b9	-0.104890294
22	0xbe206d4f	-0.15666698
23	0xbdaf389f	-0.085557215
24	0xbe632701	-0.22182848
25	0xbe0f0b30	-0.13969111
26	0x3d1a1c4f	0.037624653
27	0x3b0c3872	0.0021395949
28	0xbc18da5b	-0.009329404
29	0x3dbdcf6b	0.092680775
30	0xbd2a4c5b	-0.041576724
31	0x3d3f91e0	0.046769977
32	0x3cec6022	0.028854433
33	0xbdaaea58	-0.08345479
34	0x3c8157d3	0.015788948
35	0xbdd16b99	-0.10225601
36	0xbe1c902a	-0.15289369
37	0xbd4d3492	-0.050098963
38	0xb9827c00	-0.0002488792
39	0x3c91b670	0.017787188
40	0xbd5e5e6c	-0.054289266
41	0xbe27e06e	-0.16394207

model.2.weight f4 [84, 42]
0	0xbe04853b	-0.12941448
1	0xbe30f9cd	-0.17282791
2	0xbdbb0291	-0.09131349
3	0xbe03ffa5	-0.1289049
4	0xbd97d38b	-0.074133955
5	0xbdf698bc	-0.120408505
6	0xbf63cea0	-0.8898716
7	0x3d5df655	0.05419
8	0x3cd18d2f	0.025580017
9	0x3c62dcb3	0.013846564
10	0x3dd814d0	0.10550845
11	0xbd08df13	-0.033415865
12	0xbee53040	-0.44763374
13	0xbd8ee322	-0.06976916
14	0xbdf67f3f	-0.12035989
15	0xbcf3ddf1	-0.029768916
16	0xbddfa439	-0.10919995
17	0xbe5f887d	-0.2182941
18	0xbbd63f06	-0.0065382747
19	0xbe0d3635	-0.1379021
20	0x3cd7c268	0.026337817
21	0xbf088b5c	-0.53337646
22	0xbdad14ed	-0.08451257
23	0x3db581db	0.088626586
24	0x3e45891c	0.19290584
25	0x3d6e06c1	0.05811191
26	0xbe1aee35	-0.15129931
27	0x3ea9a05a	0.3313015
28	0xbe14889d	-0.14505239
29	0xbed0bad2	-0.40767533
30	0xbe28fa55	-0.16501744
31	0x3d54aa0b	0.051919978
32	0xbe7be467	-0.24598847
33	0xbd458cdb	-0.048230033
34	0xbddbf35e	-0.10739778
35	0xbc4ea155	-0.012611707
36	0xbe22c26f	-0.15894483
37	0x3d945f06	0.07244687
38	0x3ca2eb94	0.019887723
39	0xbde6f90e	-0.11277972
40	0xbbce8b0e	-0.0063031977
41	0xbe9a6833	-0.30157623
42	0x3e2279b4	0.15866739
43	0xbbf6ad19	-0.007527959
44	0xbe2e06b0	-0.16994739
45	0x3db82a0c	0.08992395
46	0xbd9e3671	-0.077252276
47	0xbd6beb4c	-0.057597443
48	0xbd37ef06	-0.044905685
49	0xbe57fa23	-0.21091513
50	0xbd889754	-0.066694885
51	0x3dd5a350	0.1043154
52	0x3e0a6de6	0.13518485
53	0xbd156599	-0.036473844
54	0xbe5df56d	-0.21675654
55	0x3e08af6f	0.13348173
56	0xbc3823a8	-0.01123897
57	0xbdfd439e	-0.123664126
58	0xbdd8e48d	-0.105904676
59	0xbea4167b	-0.320484
60	0x3dd636d4	0.104596764
61	0xbd622547	-0.05521133
62	0xbe7e1d14	-0.2481578
63	0xbd938801	-0.07203675
64	0xbddc4b01	-0.10756493
65	0x3cde2857	0.027118845
66	0xbe0661d4	-0.13123256
67	0x3cc17aef	0.02361819
68	0xbebf007c	-0.37305057
69	0x3d7a5ef0	0.061125696
70	0xbe14f862	-0.14547876
71	0xbe146464	-0.14491421
72	0xbe516080	-0.20446968
73	0x3dd259ec	0.102710575
74	0xbdc5cc54	-0.09658113
75	0x3d577ad2	0.052607365
76	0x3c4fb56e	0.012677534
77	0x3d8ce540	0.068796635
78	0xbd98b5ec	-0.07456574
79	0x3c1d4249	0.009598323
80	0x3d61ab1a	0.055094816
81	0xbdfe0227	-0.12402754
82	0x3d8841c3	0.06653168
83	0x3d8987eb	0.067153774
84	0xbe2114db	-0.15730612
85	0xbec66abc	-0.38753307
86	0xbdb1510e	-0.08658038
87	0x3ba00495	0.0048833587
88	0x3e06624c	0.13123435
89	0xbcdd470d	-0.027011419
90	0x3c9dc0c3	0.019256955
91	0xbf4dfc6f	-0.8046331
92	0x3d4dbd59	0.050229404
93	0xbe179368	-0.14802325
94	0x3c53353b	0.012891109
95	0xbe685e99	-0.22692336
96	0xbeb52c0c	-0.35385168
97	0x3dc4a73f	0.09602212
98	0x3d3ee4d9	0.046604965
99	0xbde05957	-0.1095454
100	0xbfa6628d	-1.2998825
101	0x3de0e25e	0.10980676
102	0xbe2a8525	-0.16652353
103	0x3f1401aa	0.5781504
104	0xbf79385e	-0.97351635
105	0xbe3bcb73	-0.18339328
106	0x3df0a682	0.11750509
107	0x3c109acb	0.008825968
108	0xbf38369b	-0.7195832
109	0xbe523b2d	-0.20530386
110	0x3f0e3b95	0.55559665
111	0xbe4e83e9	-0.20167507
112	0x3d7314cf	0.059346016
113	0xbe430209	-0.19043745
114	0xbf26ef96	-0.6520933
115	0x3d9a596f	0.07536589
116	0xbda91aab	-0.0825704
117	0xbd3089b2	-0.043100066
118	0x3d867d14	0.065668255
119	0x3e05abcc	0.13053817
120	0x3de851f6	0.11343758
121	0xbd9ec147	-0.077517085
122	0xbcdfe829	-0.027332382
123	0x3e182036	0.14856037
124	0x3c616155	0.013756116
125	0x3e0c9665	0.13729246
126	0xbdf9d11c	-0.121980876
127	0x3ef8a306	0.48561877
128	0xbdb5cb4a	-0.08876665
129	0xbcc1c706	-0.023654472
130	0xbca05a36	-0.019574266
131	0xbdbe4214	-0.09289947
132	0xbf4b4bd4	-0.7941258
133	0xbe51335b	-0.20429747
134	0x3cd44d09	0.02591564
135	0xbc8e8c6f	-0.017400948
136	0xbe01fea2	-0.12694791
137	0xbe63d82d	-0.22250433
138	0x3dac74da	0.08420725
139	0x3d9a5dae	0.07537399
140	0x3cf40fd2	0.0297927
141	0x3c25aec1	0.010112465
142	0xbee6a079	-0.45044306
143	0xbe2d24a4	-0.16908509
144	0x3e40eb5b	0.18839781
145	0x3e4aff88	0.1982404
146	0xbe513e3a	-0.20433894
147	0x3b3ce7ee	0.0028824764
148	0xbd97962e	-0.074016914
149	0x3d89d0f7	0.0672931
150	0x3e1adf45	0.15124233
151	0xbd7863b3	-0.060641956
152	0xbe83b07c	-0.25720584
153	0xbebbe6da	-0.36699563
154	0x3cf03465	0.029321859
155	0x3ed69caa	0.419164
156	0xbf004276	-0.5010141
157	0xbdc68580	-0.09693432
158	0xbd7701f9	-0.060304616
159	0xbc9dd153	-0.019264853
160	0x3df3d6a7	0.11906176
161	0xbe21edf7	-0.15813433
162	0xbe3f3b8f	-0.18675064
163	0xbd104b47	-0.03522804
164	0x3d98ad05	0.07454876
165	0xbcd0d930	-0.025494188
166	0x3d8c6dde	0.06856893
167	0xbe230a15	-0.15921815
168	0x3d19042f	0.037357505
169	0xbd905be6	-0.07048778
170	0xbce4287d	-0.027851338
171	0x3deb7f37	0.11498874
172	0x3d6f31a6	0.058396958
173	0xbdd85ce8	-0.105645955
174	0xbc6b03e9	-0.014344194
175	0xbdfe33d2	-0.12412228
176	0xbda62032	-0.081116095
177	0xbe1b735b	-0.15180723
178	0xbdfb39c7	-0.122668795
179	0x3be52309	0.006992702
180	0xbe0a88cf	-0.13528751
181	0x3e151ca6	0.1456171
182	0xbe15e872	-0.14639452
183	0x3d5bb485	0.053638954
184	0xbd2500ea	-0.040284075
185	0xbe1427de	-0.14468333
186	0x3d639901	0.055565838
187	0xbdf864f8	-0.12128633
188	0xbd474980	-0.04865408
189	0xbe1c31e0	-0.15253401
190	0xbe1b9b31	-0.1519592
191	0x3b963afa	0.0045846673
192	0x3da953e4	0.08267954
193	0xbe250247	-0.1611415
194	0xbd7abefb	-0.06121729
195	0x3e0ccf75	0.13751014
196	0xbe0fe5a8	-0.1405245
197	0x3c3748c2	0.01118678
198	0xbda46947	-0.080278926
199	0xbd8d3ae1	-0.06895996
200	0x3d8c07fe	0.06837462
201	0x3e0b71c6	0.1361762
202	0x3d6c3019	0.057663057
203	0xbe213860	-0.15744162
204	0x3ce0d43c	0.027444951
205	0x3d26cce4	0.040722743
206	0x3d9b6fc2	0.075896755
207	0x3c4e895b	0.01260599
208	0x3cb2c4df	0.021822391
209	0xbc1a4740	-0.009416401
210	0x3d41b555	0.047292072
211	0x3d86d1fb	0.06583019
212	0x3dbebd5b	0.093134604
213	0xbdcdc8bd	-0.100480534
214	0xbddab50c	-0.10679063
215	0xbdfa2579	-0.122141786
216	0xbe845d75	-0.25852552
217	0xbe597052	-0.21234253
218	0xbe15075c	-0.14553589
219	0x3dfbbd9e	0.12292026
220	0x3de59e2b	0.11211809
221	0x3d579021	0.052627686
222	0x3d578ea5	0.05262627
223	0x3c2982f9	0.010346168
224	0xbdca7aca	-0.098867014
225	0xbdafd098	-0.08584708
226	0x3c09cb14	0.008410234
227	0xbe11299d	-0.1417603
228	0xbe41c306	-0.18922052
229	0xbdaf24b6	-0.08551924
230	0x3cefd7fa	0.02927779
231	0xbe3becd2	-0.18352059
232	0xbc5a772f	-0.01333408
233	0xbc500f5b	-0.0126989735
234	0xbe682973	-0.22672062
235	0xbc0f8a67	-0.008761025
236	0x3d553520	0.052052617
237	0xbd846596	-0.064646885
238	0x3d9b83fc	0.075935334
239	0x3cb45fee	0.0220184
240	0x3bbf2a0c	0.00583387
241	0xbe11b543	-0.14229302
242	0xbdecf511	-0.1157018
243	0x3b2f8bf7	0.0026786306
244	0x3dfbb5d7	0.122905426
245	0x3b1310f5	0.0022440527
246	0xbd86a614	-0.06574646
247	0x3dfd78d5	0.123765625
248	0xbe00ee65	-0.1259094
249	0x3d49ebae	0.049297027
250	0x3d6b1d12	0.05740077
251	0x3db5a6c0	0.08869696
252	0x3c6a7e8c	0.014312398
253	0x3c67bd05	0.014144187
254	0x3dd66eac	0.10470328
255	0x3d9d91ca	0.07693823

model.2.bias f4 [84]
0	0xbdb4d544	-0.0882974
1	0xbe91ca7a	-0.2847479
2	0x3ef5137a	0.47866422
3	0xbe13ac0d	-0.14421101
4	0xbe20f694	-0.15719062
5	0xbe0258cf	-0.1272919
6	0x3c9fcd3b	0.019507041
7	0x3c39c37f	0.011338114
8	0xbf155c80	-0.5834427
9	0xbe044b7c	-0.1291942
10	0x3f32262a	0.69589484
11	0xbd0c462a	-0.0342466
12	0xbe612552	-0.21986893
13	0xbec3f841	-0.3827534
14	0xbd45d01c	-0.04829417
15	0x3ea339cc	0.31880033
16	0xbe0d2376	-0.13783059
17	0x3eb6f331	0.35732415
18	0xbecd4a45	-0.40095726
19	0xbe0e98c0	-0.13925457
20	0x3c3f9c0b	0.011694918
21	0x3c09ed3e	0.008418379
22	0xbd02c8e2	-0.031929858
23	0x3cf824c3	0.030290967
24	0xbe3981f8	-0.18115985
25	0xbef6da01	-0.482132
26	0x3cfa23db	0.030534675
27	0xbe269e8f	-0.16271423
28	0xbe278d98	-0.16362607
29	0xbc34f804	-0.01104546
30	0xbd0669ff	-0.03281593
31	0xbe752631	-0.2394035
32	0x3e8333bc	0.25625408
33	0xbe3e1482	-0.1856251
34	0xbe3409d9	-0.17581882
35	0xbda6b457	-0.08139866
36	0xbe003953	-0.12521867
37	0xbd335325	-0.043780465
38	0xbde1527d	-0.110020615
39	0xbe74bab5	-0.23899348
40	0x3ee33382	0.44375235
41	0x3e89e6c7	0.26933882
42	0xbe1ea5a5	-0.15492876
43	0x3e384632	0.17995527
44	0xbe9612fc	-0.2931136
45	0xbd98029f	-0.07422375
46	0xbd44f077	-0.048080888
47	0x3ebe63ea	0.37185603
48	0xbdca569f	-0.09879803
49	0xbe2b5c6d	-0.16734476
50	0xbc9db9ac	-0.019253574
51	0xbd952a41	-0.0728345
52	0xbd24456a	-0.04010526
53	0xbe3cd563	-0.18440776
54	0x3ecca913	0.39972743
55	0xbeb32c7f	-0.34994885
56	0x3b024632	0.0019878265
57	0x3ec928ac	0.39288843
58	0x3d6f10ef	0.05836576
59	0xbf0caf59	-0.5495506
60	0xbde11558	-0.10990399
61	0xbf467240	-0.7751808
62	0xbe269115	-0.16266282
63	0x3d251b31	0.040309135
64	0x3e853506	0.26017016
65	0xbd5b482d	-0.05353563
66	0xbc2e036a	-0.010620931
67	0xbe83c803	-0.25738534
68	0x3ec7e593	0.3904234
69	0xbe488206	-0.1958085
70	0xbd81848f	-0.06324112
71	0xbdb1a8a4	-0.08674744
72	0xbeb7261e	-0.3577127
73	0xbddd2cc1	-0.10799552
74	0xbe1e4471	-0.15455796
75	0xbe802581	-0.25028613
76	0xbe59ca96	-0.21268687
77	0xbe44b7d9	-0.19210757
78	0xbe68f4b1	-0.22749592
79	0x3efd153f	0.49430272
80	0xbd2a6940	-0.04160428
81	0xbe69da44	-0.22837168
82	0xbe33267f	-0.17495154
83	0xbe01a47b	-0.126604

model.4.weight f4 [168, 84]
0	0xbd423379	-0.04741237
1	0xbd66694c	-0.056252763
2	0x3d24209a	0.040070154
3	0xbc68c2d0	-0.014206603
4	0x3da2c74b	0.07948168
5	0x3b22b5de	0.002482764
6	0xbd9d68c5	-0.07685999
7	0x3bd06c42	0.0063605616
8	0xbdc9f2dd	-0.098607756
9	0x3dc6af3e	0.097013935
10	0xbe2288be	-0.15872476
11	0xbc49efe4	-0.012325261
12	0xbe1838bb	-0.14865391
13	0x3d7fb60e	0.06242948
14	0xbc332ce7	-0.0109359985
15	0xbe50ea77	-0.20401941
16	0xbc9bed7e	-0.019034144
17	0xbd9382fc	-0.07202718
18	0xbd8204b2	-0.06348552
19	0xbdc62f67	-0.0967701
20	0xbbd78173	-0.006576711
21	0x3d9404e0	0.07227492
22	0xbd120cc6	-0.035656713
23	0x3bddd1a4	0.006769376
24	0x3d31aa76	0.043375455
25	0xbe337c99	-0.17527999
26	0xbcd8ef80	-0.02648139
27	0x3d14e9eb	0.036355894
28	0xbddc1efd	-0.10748098
29	0x3d8a8b85	0.067648925
30	0xbd431b05	-0.04763319
31	0xbdee061a	-0.116222575
32	0xbd2b9c1d	-0.041896928
33	0x3d619449	0.055073056
34	0x3d79091b	0.0607997
35	0xbdd5370a	-0.104108885
36	0x3bd1ff81	0.0064086323
37	0x3c876c39	0.016531097
38	0xbc00c64d	-0.007859779
39	0x3cc20292	0.023682866
40	0xbe394d02	-0.18095782
41	0x3d468eb5	0.04847594
42	0xbd75a0a2	-0.059967645
43	0xbdefab0c	-0.117025465
44	0x3d34ae12	0.04411132
45	0x3db7244d	0.08942471
46	0x3cddd3d1	0.027078541
47	0xbd3fd55e	-0.046834342
48	0xbbb59403	-0.005541326
49	0x3d2ede6f	0.042692598
50	0xbde60db0	-0.112330794
51	0x3d31bc6f	0.043392595
52	0x3d8aa1af	0.0676912
53	0xbd5dc89a	-0.054146387
54	0xbb78e40e	-0.0037977728
55	0x3d00b7c8	0.031425267
56	0xbc8745e7	-0.016512824
57	0xbe41f643	-0.18941598
58	0xbe12868b	-0.14309137
59	0x3cb67f12	0.022277389
60	0xbda8ce55	-0.0824248
61	0xbdba968a	-0.09110744
62	0x3db04d9f	0.08608555
63	0xbe060690	-0.13088441
64	0xbe0b931e	-0.1363034
65	0xbdb7d2a2	-0.08975722
66	0xbdbbe239	-0.09174008
67	0xbd2ac20c	-0.041688964
68	0xbdf229f1	-0.11824406
69	0xbd2ed7ce	-0.042686276
70	0xbda61d75	-0.08111087
71	0xbd6fcbef	-0.058544096
72	0xbbd7d93e	-0.0065871766
73	0x3cb43db6	0.022002082
74	0x3d8ba700	0.06818962
75	0xbdac168b	-0.08402737
76	0xbde72f1f	-0.112882845
77	0x3d953dbc	0.072871655
78	0xbc561bf6	-0.01306819
79	0xbd8f7455	-0.070046104
80	0x3cd8a37e	0.026445147
81	0xbdce63ac	-0.10077605
82	0xbb070f51	-0.0020608495
83	0xbc1a6c4e	-0.009425236
84	0xbd770897	-0.060310926
85	0xbdbb2329	-0.09137566
86	0x3e045578	0.12923229
87	0xbdf466ed	-0.11933694
88	0xbc04bd4a	-0.008101771
89	0x3cd0fbdc	0.02551072
90	0xbd4c3870	-0.04985851
91	0x3d91e081	0.07122899
92	0xbd424b37	-0.04743501
93	0x3ddb0772	0.106947795
94	0xbebdbbe4	-0.37057412
95	0xbd80f20a	-0.06296165
96	0xbed9bddc	-0.42527664
97	0xbc616334	-0.013756562
98	0x3b74bf20	0.0037345365
99	0x3e8ae85f	0.2713041
100	0xbda3dbde	-0.08000921
101	0x3ebfcbcc	0.37460172
102	0xbe8334f4	-0.25626338
103	0x3d667202	0.05626107
104	0x3d94f142	0.07272579
105	0x3d60addd	0.05485331
106	0xbd2f237a	-0.042758442
107	0xbd95c30c	-0.07312593
108	0x3f1bcfef	0.60864156
109	0xbec6bbe8	-0.38815236
110	0x3dea6d16	0.11446588
111	0x3dc2e3db	0.09516116
112	0xbd1f3d1f	-0.03887665
113	0x3da27b18	0.079336345
114	0xbd251aee	-0.040308885
115	0x3d8950ba	0.067048505
116	0xbee08f7c	-0.4385947
117	0x3cbc7766	0.023006152
118	0xbd867720	-0.0656569
119	0x3dcfaa7b	0.101399384
120	0xbd7567c5	-0.059913415
121	0xbd426775	-0.047461946
122	0x3d35b57d	0.044362534
123	0x3e83a287	0.25709936
124	0x3db6b8bb	0.08921953
125	0x3dc04444	0.09388021
126	0x3cd2932c	0.025704943
127	0xbe4a790f	-0.19772743
128	0xbc84c14e	-0.016205456
129	0xbdc347ce	-0.0953518
130	0x3d5bc9ef	0.053659376
131	0x3e5210b3	0.20514183
132	0x3d300d1c	0.042981252
133	0xbe572b4a	-0.21012607
134	0x3c9a4e85	0.01883627
135	0xbd753cf5	-0.059872586
136	0x3cd17e43	0.025572902
137	0xbcc3f2b3	-0.023919439
138	0xbecccacc	-0.39998472
139	0xbc9c39b5	-0.019070486
140	0xbd10d534	-0.035359576
141	0x3bd5aa44	0.0065205414
142	0xbbcd7782	-0.00627035
143	0xbd356f6c	-0.044295713
144	0xbdde6ae8	-0.108602345
145	0xbe13bca6	-0.14427432
146	0x3cc132f5	0.023583869
147	0x3f05b16c	0.5222385
148	0x3c354d25	0.011065756
149	0x3eed5df3	0.4636074
150	0xbd9d949e	-0.07694362
151	0x3b467fb6	0.0030288524
152	0x3d51dd0b	0.051236194
153	0x3d0d16d3	0.034445595
154	0x3cc2ef40	0.023795724
155	0xbf395591	-0.7239619
156	0x3dcd2925	0.10017613
157	0xbcf511d4	-0.029915728
158	0x3c057a32	0.008146809
159	0x3e0b71bb	0.13617603
160	0x3d81e53e	0.063425526
161	0xbd55c674	-0.052191213
162	0xbd994ff1	-0.07485951
163	0xbf2ef6cf	-0.6834535
164	0xbd38a5b1	-0.04507989
165	0xbdce0d7c	-0.10061166
166	0xbeeb9cba	-0.4601801
167	0x3d248a26	0.04017081
168	0x3e1d610f	0.15369056
169	0x3da42563	0.080149435
170	0xbe496bb0	-0.19669986
171	0xbd00897f	-0.031381126
172	0x3c6f7345	0.014614885
173	0xbe07ff4a	-0.13280979
174	0xbd0aba7b	-0.033869248
175	0xbdc5c1a4	-0.09656075
176	0xbe6e7215	-0.23285706
177	0x3e596719	0.21230735
178	0x3ee5c65e	0.44877905
179	0x3e882d6a	0.26597148
180	0x3eba391d	0.363717
181	0x3c088a37	0.008333734
182	0xbe04b7f9	-0.12960805
183	0xbef9d8ce	-0.4879822
184	0xbe093310	-0.13398385
185	0x3e12830a	0.143078
186	0x3d6c04a5	0.057621617
187	0xbc732552	-0.014840441
188	0xbe146836	-0.14492878
189	0x3c346f7c	0.011012908
190	0xbb18e7e8	-0.0023331586
191	0x3d3f1833	0.046653938
192	0xbedd6b95	-0.4324614
193	0x3eb1850e	0.34671825
194	0xbdbb904d	-0.091583826
195	0x3f111f6f	0.5668859
196	0x3bd96554	0.0066343937
197	0x3d22ba34	0.03972836
198	0x3d67560c	0.056478545
199	0x3e7b77ca	0.24557415
200	0x3e03f361	0.1288581
201	0x3db1e85c	0.08686897
202	0xbca94006	-0.020660412
203	0x3c4dff0d	0.012573016
204	0x3dc4484c	0.09584102
205	0x3ed02cfe	0.40659326
206	0x3c780adb	0.015139307
207	0x3e3b0dff	0.18267058
208	0x3cca65c5	0.02470673
209	0xbeac3fa8	-0.33642316
210	0x3de8dcb0	0.11370218
211	0xbf395400	-0.723938
212	0x3e414c15	0.18876679
213	0xbd44e9e2	-0.04807461
214	0x3d61cc0e	0.055126242
215	0x3e02ad0d	0.12761326
216	0x3c3b0855	0.011415561
217	0xbe692bd0	-0.2277062
218	0x3d59d4fd	0.053181637
219	0x3d3891f3	0.045061063
220	0xbac19460	-0.0014768951
221	0x3e2cb088	0.16864216
222	0xbe91bc71	-0.28464082
223	0x3e53ac36	0.20671162
224	0xbda77b23	-0.08177783
225	0xbf258db5	-0.6466935
226	0x3e110fd9	0.14166202
227	0xbf37598d	-0.7162102
228	0x3cef8913	0.029240167
229	0x3e63d44d	0.22248955
230	0x3d997c8c	0.074944586
231	0x3ee6ea25	0.45100513
232	0xbf09042d	-0.53521997
233	0xbeaed96b	-0.34150252
234	0x3d574a3d	0.052561034
235	0x3d8eaa7e	0.069661126
236	0xbe9028b4	-0.28156054
237	0x3d630522	0.055424817
238	0xbcf79f4b	-0.030227324
239	0xbd9edb83	-0.07756712
240	0x398cf0b8	0.0002688223
241	0xbd0c0802	-0.034187324
242	0x3cacabcd	0.021078015
243	0xbd0f447b	-0.034977417
244	0x3d0901d1	0.033448998
245	0xbd2d934e	-0.04237681
246	0x3d4e6bb4	0.050395682
247	0xbea05edf	-0.3132238
248	0x3de4afb1	0.11166323
249	0xbe2292c0	-0.15876293
250	0xbdb64733	-0.08900299
251	0x3d23b1ca	0.039964475
252	0x3dd44b9e	0.10365985
253	0xbd1847b0	-0.03717774
254	0xbe01e594	-0.12685233
255	0xbd2b1cd0	-0.041775525

model.4.bias f4 [168]
0	0xbdd1c48c	-0.102425665
1	0x3dd2170a	0.102583006
2	0xbe83205a	-0.2561062
3	0x3dd84668	0.10560304
4	0xbdda35ce	-0.10654794
5	0xbe6959c1	-0.22788145
6	0xbf3b975e	-0.73277843
7	0xbe5618ea	-0.20907941
8	0xbe102784	-0.14077574
9	0xbcb1cc9d	-0.021704013
10	0x3e96992f	0.29413745
11	0xbe7100c3	-0.23535447
12	0xbe503b44	-0.20335108
13	0xbddbbb65	-0.10729102
14	0xbc1a490e	-0.009416832
15	0xbe05ba07	-0.13059245
16	0xbd012b9e	-0.031535737
17	0xbec5bb91	-0.38619664
18	0xbcd7ae6b	-0.026328286
19	0x3c75528b	0.014973293
20	0xbeb50420	-0.3535471
21	0xbccf13ae	-0.025277939
22	0xbe4876e3	-0.19576602
23	0xbe3e1f42	-0.18566611
24	0xbded3755	-0.11582819
25	0x3d162f50	0.036666214
26	0xbc8121fa	-0.015763272
27	0xbd513f43	-0.05108572
28	0xbe943a61	-0.2895079
29	0xbecd4b76	-0.40096635
30	0x3dd9dd3c	0.106379
31	0xbe1e4a3a	-0.15458003
32	0x3de3bed8	0.11120385
33	0xbe592bc5	-0.21208103
34	0xbdde81a0	-0.10864568
35	0xbea7993b	-0.32734093
36	0x3d94408b	0.07238873
37	0x3bd2f40c	0.006437784
38	0x3d3116d5	0.043234665
39	0x3ebffde1	0.37498382
40	0xbdfd804d	-0.12377987
41	0x3da84210	0.082157254
42	0xbc389a35	-0.011267235
43	0x3e74af18	0.23894918
44	0x3e31541a	0.17317238
45	0xbdbb8deb	-0.09157928
46	0xbf32eb61	-0.6989041
47	0x3e12fefa	0.14355078
48	0x3d8d37df	0.06895422
49	0xbd17c532	-0.037053294
50	0xbdb4ed70	-0.0883435
51	0xbdc54ae6	-0.09633426
52	0xbd7fa0e1	-0.062409285
53	0xbe728dc3	-0.2368689
54	0xbeb4703e	-0.35241884
55	0xbe4fbcc4	-0.20286852
56	0xbe9ec8ec	-0.31012666
57	0xbea078d6	-0.3134219
58	0x3bd85b18	0.006602656
59	0xbe717ca8	-0.23582709
60	0xbf010831	-0.50403124
61	0xbdf34a65	-0.11879424
62	0xbe40cfcf	-0.18829273
63	0xbe033b77	-0.12815653
64	0xbe2d3929	-0.16916336
65	0x3e344de8	0.17607844
66	0xbe1a671d	-0.15078397
67	0xbe9188e0	-0.2842474
68	0xbe364226	-0.17798671
69	0xbe494bbd	-0.19657798
70	0xbdaf0486	-0.08545785
71	0xbe89a36c	-0.26882493
72	0xbe7c0580	-0.24611473
73	0x3d311f9c	0.043243036
74	0xbd8640e4	-0.06555346
75	0xbed06b2a	-0.4070676
76	0x3dd927e4	0.10603312
77	0x3ccd349e	0.025049504
78	0xbe0fdfdf	-0.14050244
79	0xbd4f2906	-0.050576232
80	0xbf3364e2	-0.7007581
81	0xbe38ddd7	-0.18053375
82	0xbe2d14fb	-0.16902535
83	0xbed1d9c1	-0.40986446
84	0xbe6442d2	-0.22291115
85	0xbcd0dbd5	-0.02549545
86	0x3f17e6c7	0.59336513
87	0x3e026e43	0.12737374
88	0xbe084b94	-0.13310081
89	0x3d2b9f50	0.04189998
90	0xbe990659	-0.29887655
91	0x3f3256e7	0.6966385
92	0xbd1d15bc	-0.038350806
93	0xbeb966a9	-0.36211136
94	0xbc9b929b	-0.018990805
95	0xbd0bc27d	-0.034121025
96	0xbd1790e0	-0.037003398
97	0xbd90d76c	-0.070723385
98	0xbc81b580	-0.015833616
99	0x3e40f03b	0.1884164
100	0xbe0a7bf0	-0.13523841
101	0xbe487b43	-0.1957827
102	0xbe9f848e	-0.3115582
103	0xbe841a8e	-0.2580151
104	0xbf0209d3	-0.5079624
105	0xbdd51cea	-0.104059055
106	0x3d5493fb	0.051898938
107	0xbddc571b	-0.107588015
108	0xbe6715ea	-0.22566953
109	0x3eee418a	0.46534377
110	0xbc85c04a	-0.016327042
111	0x3f030093	0.5117275
112	0x3e9c773f	0.30559728
113	0xbe292637	-0.16518484
114	0xbcc3f697	-0.023921294
115	0xbe4a838d	-0.19776745
116	0xbe9b9d75	-0.30393568
117	0xbf078c10	-0.52948093
118	0x3f347ca9	0.70502716
119	0x3e3c410a	0.18384185
120	0xbe0de5c9	-0.13857187
121	0xbe2bf75b	-0.16793577
122	0xbe1fa227	-0.155892
123	0xbe433f38	-0.19067085
124	0xbcbb391d	-0.022854382
125	0xbedc6a27	-0.43049738
126	0xbeaca606	-0.33720416
127	0xbec8a8e8	-0.39191365
128	0xbd96d2f1	-0.07364453
129	0x3db3c90d	0.08778582
130	0xbd07fc92	-0.033199854
131	0xbe9a2596	-0.301068
132	0x3ecfd03e	0.40588564
133	0xbe423718	-0.18966329
134	0xbe3389a1	-0.1753297
135	0xbdc24a0d	-0.0948678
136	0x3dad9c85	0.08477119
137	0xbe2b23cd	-0.16712876
138	0xbe123b47	-0.14280425
139	0x3db62061	0.088928945
140	0xbe5daaf6	-0.21647248
141	0xbee834a3	-0.4535266
142	0xbe22c7ee	-0.1589658
143	0xbe8df6a0	-0.27727222
144	0xbdfbe89d	-0.12300227
145	0x3d11c575	0.0355887
146	0xbe58a8aa	-0.2115809
147	0xbe9bd052	-0.30432373
148	0xbe8181d9	-0.25294378
149	0xbe844134	-0.25830996
150	0xbdccd2c7	-0.1000114
151	0xbee99bd3	-0.45626697
152	0xbd11d73f	-0.035605665
153	0x3d570de0	0.052503467
154	0xbe94a84a	-0.29034644
155	0xbe50e6f2	-0.20400599
156	0x3b1a6b4e	0.0023562494
157	0xbddb9dde	-0.1072347
158	0x3e85aadd	0.2610692
159	0x3d99be56	0.07507007
160	0xbe24f747	-0.16109954
161	0xbe8249c4	-0.25446904
162	0xbec7275e	-0.38897222
163	0x3e3a3948	0.18185914
164	0xbf0ecc2d	-0.557803
165	0xbcfb6a47	-0.030690325
166	0xbe46813e	-0.1938524
167	0xbe7f3064	-0.24920803

model.6.weight f4 [84, 168]
0	0xbe049310	-0.12946725
1	0xbda11463	-0.078652166
2	0xbda1514d	-0.07876835
3	0x3c069f4f	0.008216693
4	0xbda7fa77	-0.08202069
5	0xbd6ef31a	-0.05833731
6	0x3e57df49	0.2108127
7	0xbd44e80a	-0.048072852
8	0xbc9d5cba	-0.019209255
9	0xbcd6cd08	-0.026220813
10	0xbe0d2fc5	-0.13787754
11	0x3d444c54	0.047924355
12	0x3c2b0e09	0.010440358
13	0x3e265142	0.16241935
14	0x3c0c646a	0.008568862
15	0x3db77d84	0.08959487
16	0x3e805873	0.2506748
17	0x3d0cf112	0.03440959
18	0xbe839aa1	-0.2570391
19	0x3e1b4707	0.15163814
20	0x3dc51134	0.09622422
21	0x3cdea489	0.027178066
22	0xbca56b6b	-0.020192822
23	0xbe796c17	-0.24357639
24	0x3d3a696c	0.045510694
25	0xbdf4fa06	-0.11961751
26	0x3d8fa80b	0.070144735
27	0xbd8a1db8	-0.0674395
28	0xbd36ff6c	-0.044677183
29	0xbded90b6	-0.11599867
30	0xbe9398fd	-0.28827658
31	0xbc1b2cf0	-0.009471163
32	0x3e3929aa	0.180823
33	0xbbe1990f	-0.006884701
34	0xbd9576d5	-0.07298056
35	0x3d96c200	0.07361221
36	0x3e1c5e7c	0.15270418
37	0xbd0bd6f4	-0.034140542
38	0xbcc24848	-0.023716107
39	0xbd885cf4	-0.066583544
40	0xbd9f5057	-0.077789955
41	0xbe3206c1	-0.17385389
42	0xbe230827	-0.15921079
43	0xbda5b04a	-0.08090265
44	0xbd365f7d	-0.04452466
45	0xbdece853	-0.1156775
46	0xbd1fabb5	-0.038982112
47	0x3ea5d7cf	0.3239121
48	0x3e6c34d1	0.23067023
49	0xbdb523da	-0.08844729
50	0xbd3dc823	-0.046333443
51	0x3d2ba953	0.041909527
52	0xbb835a1f	-0.004008546
53	0x3c89fcfe	0.016844269
54	0xbdd9891b	-0.10621854
55	0x3baf7a58	0.0053551607
56	0x3c93be84	0.01803518
57	0xbbc08066	-0.0058746813
58	0xbdb7fa5d	-0.089833
59	0x3e2f93f8	0.1714629
60	0xbcec6fa7	-0.028861834
61	0x3da5c615	0.08094422
62	0xbda811fe	-0.08206557
63	0x3cd82aa1	0.026387515
64	0x3d2b8034	0.04187031
65	0x3b9bf8c5	0.0047598802
66	0xbd224ec4	-0.039625898
67	0x3e93a290	0.28834963
68	0xbd178845	-0.03699519
69	0x3d0efda5	0.034909863
70	0x3d03b4d4	0.032154873
71	0xbd9e5891	-0.077317365
72	0xbd97cc10	-0.07411969
73	0x3d71daf2	0.059046693
74	0xbc5a0aa9	-0.013308206
75	0xbc9fcf9b	-0.019508174
76	0xbebda25b	-0.3703793
77	0xbd75fed3	-0.060057472
78	0x3d920e14	0.071315914
79	0xbe950523	-0.29105482
80	0xbe1498ea	-0.14511457
81	0xbd823507	-0.063577704
82	0x3d6aeed9	0.05735669
83	0xbd22812e	-0.039673977
84	0xbd1f1f33	-0.038848113
85	0xbd068f05	-0.032851238
86	0x3c5b1d0f	0.013373627
87	0xbdd3f4c3	-0.10349419
88	0xbd96c42a	-0.07361634
89	0xbd89cb8c	-0.067282766
90	0xbd476490	-0.04867989
91	0xbed13380	-0.40859604
92	0x3d88ae4b	0.06673869
93	0xbe01fb07	-0.12693416
94	0x3c908116	0.017639678
95	0x3c70dc51	0.014700965
96	0xbd961634	-0.07328454
97	0x3b8272c4	0.0039809663
98	0x3e8a1f1d	0.26976863
99	0xbdbe9834	-0.09306374
100	0x3d8d1b0a	0.06889923
101	0x3af49b14	0.001866194
102	0xbcd88355	-0.026429811
103	0xbd48f1fc	-0.0490589
104	0x3d068b15	0.032847483
105	0xbdab5a09	-0.08366782
106	0xbe5d50c4	-0.21612841
107	0x3d094739	0.03351519
108	0xbd018937	-0.031625
109	0xbec1a1c6	-0.37818736
110	0x3d13fdc1	0.03613067
111	0xbf1ddd27	-0.61665577
112	0xbd300d1a	-0.042981245
113	0x3cc69c37	0.02424441
114	0xbd6534f6	-0.05595871
115	0xbd9ef950	-0.07762396
116	0xbd82580b	-0.06364449
117	0xbe00c525	-0.12575205
118	0xbdba7f58	-0.0910632
119	0xbe838c2a	-0.25692874
120	0x3d58354f	0.052785214
121	0x3d91e71d	0.071241595
122	0x3b6d56eb	0.0036215137
123	0xbbaff939	-0.005370286
124	0xbc990222	-0.018677775
125	0xbe1280ad	-0.14306898
126	0xbd99455c	-0.074839324
127	0xbe7a845a	-0.2446455
128	0xbde7d2b7	-0.113194875
129	0x3c14ed24	0.009089742
130	0x3c7892cf	0.015171721
131	0xbd9d24ce	-0.076730356
132	0xbe31da97	-0.17368542
133	0xbd45ef4e	-0.04832392
134	0xbcba1dfb	-0.022719374
135	0x3cdb900c	0.026802085
136	0xbc78dc43	-0.015189233
137	0x3d594598	0.053044885
138	0xbe0f3c9c	-0.13987964
139	0xbdc371d5	-0.09543196
140	0x3d125598	0.03572616
141	0xbe05ef0c	-0.1307947
142	0x3c7ceae5	0.015436863
143	0x3da82aea	0.0821131
144	0x3d75b2d8	0.05998501
145	0x3d8eea8a	0.069783285
146	0x3d06e475	0.032932717
147	0xbe2084b9	-0.1567563
148	0xbd61f10e	-0.05516153
149	0xbda64555	-0.08118693
150	0x3d62afee	0.05534356
151	0x3df05e88	0.117367804
152	0xbd55ef1b	-0.052229982
153	0xbd65c6c9	-0.05609778
154	0xbd35aed2	-0.044356175
155	0xbda3355f	-0.07969164
156	0xbc153f6c	-0.009109359
157	0xbc730daa	-0.014834801
158	0x3d302e87	0.043013122
159	0x3daca771	0.084303744
160	0xbb9aa634	-0.00471952
161	0xbd1ebe72	-0.03875584
162	0xbcde9055	-0.027168432
163	0xbc7009ed	-0.014650804
164	0xbd428869	-0.047493372
165	0x3b8c563c	0.004282741
166	0xbc6bac65	-0.014384364
167	0x3c961cbc	0.018324248
168	0xbd3fd29a	-0.046831705
169	0xbd99c337	-0.075079374
170	0x3e07fc3f	0.13279818
171	0x3e2c6666	0.16835937
172	0xbd8549e3	-0.065082334
173	0x3ce1356f	0.0274913
174	0xbdda0c52	-0.10646881
175	0xbc88f4b6	-0.01671825
176	0x3d09c3b5	0.033633906
177	0xbd47ee19	-0.048811052
178	0xbd5511d5	-0.05201896
179	0x3c8e8639	0.017397987
180	0xbd6bacab	-0.057537716
181	0x3d93fea6	0.07226305
182	0xbd8e69cb	-0.06953772
183	0xbc4c9c86	-0.01248849
184	0xbd0d8594	-0.03455122
185	0xbaf445b6	-0.0018636498
186	0xbd1b7dfc	-0.037961945
187	0xbb61f34b	-0.003447729
188	0xbd94f033	-0.07272377
189	0x3d61a3db	0.055087905
190	0x3d78d626	0.060751103
191	0xbe5f2580	-0.21791649
192	0xbd55054d	-0.05200701
193	0xbeae58c0	-0.34052086
194	0xbd98f664	-0.0746887
195	0xbd93afc5	-0.0721126
196	0x3ae2ca12	0.0017302653
197	0xbe02cfdb	-0.12774603
198	0xbd9acd2e	-0.07558666
199	0xbcdd8382	-0.027040247
200	0xbd91116f	-0.07083403
201	0x3d112421	0.035434846
202	0xbddcf3b3	-0.107886694
203	0xbe3b697e	-0.18301961
204	0xbcd5aabb	-0.026082387
205	0xbd87a920	-0.06624055
206	0x3d5bbc24	0.05364622
207	0xbd229e7d	-0.039701927
208	0xbcf9afde	-0.030479368
209	0xbdfb5a22	-0.12273051
210	0x3e5cd210	0.21564507
211	0xbdc5f538	-0.096659124
212	0x3d016ef9	0.031599972
213	0xbca33334	-0.019921876
214	0xbe42fe33	-0.19042282
215	0xbd3814d1	-0.044941727
216	0xbeabc540	-0.33548927
217	0xbd2ac64f	-0.041693028
218	0x3b9684c6	0.0045934645
219	0xbd2e9af1	-0.042628232
220	0x3d0a2622	0.033727773
221	0xbd4fdb66	-0.050746344
222	0xbd9635dd	-0.07334492
223	0xbd96b712	-0.07359137
224	0xbdc2a181	-0.09503461
225	0xbd9d0164	-0.07666281
226	0x3c861969	0.016369538
227	0xbcb66523	-0.022265023
228	0xbd9b478e	-0.07582007
229	0x3d21083a	0.039314486
230	0xbe5018ce	-0.20321962
231	0xbce9f71e	-0.028560217
232	0xbe812c66	-0.25229186
233	0xbc8af2bd	-0.01696145
234	0x3d167649	0.0367339
235	0x3d48ef21	0.049056176
236	0x3cdbb78a	0.026820917
237	0x3caf87a0	0.021426976
238	0xbc9c5726	-0.019084524
239	0xbdc021db	-0.093814574
240	0xbd8901c6	-0.066897914
241	0xbe6d3260	-0.23163748
242	0x3d0a06e5	0.03369798
243	0xbd8b1898	-0.067918
244	0xbddfb252	-0.10922684
245	0x3d1b1749	0.037864003
246	0xbd047ba1	-0.032344464
247	0xbda0caf2	-0.07851209
248	0x3d9247ea	0.07142623
249	0x3d6c9765	0.05776157
250	0xbc0d001b	-0.008605982
251	0xbd312ac3	-0.04325367
252	0x3d8d86b8	0.06910461
253	0x3d724846	0.059150957
254	0xbde53ef4	-0.11193648
255	0xbe79c7a0	-0.24392557

model.6.bias f4 [84]
0	0xbe332735	-0.17495425
1	0xbe35bd49	-0.17747988
2	0xbf26d8dd	-0.6517466
3	0xbec20f1f	-0.3790216
4	0xbdc2ff1b	-0.09521314
5	0x3c497e62	0.012298198
6	0xbe37a6eb	-0.17934768
7	0xbe019b1f	-0.1265683
8	0xbd070e0e	-0.032972388
9	0xbeca3380	-0.39492416
10	0xbe090fd2	-0.13384941
11	0xbe931779	-0.28728846
12	0xbeece1e6	-0.46266097
13	0xbe9b94b8	-0.303869
14	0x3f560d99	0.836145
15	0xbe1d229d	-0.15345235
16	0x3e3f2b19	0.18668784
17	0xbe9241ec	-0.2856592
18	0x3e283c6b	0.16429298
19	0x3f584f23	0.84495753
20	0x3e106dfe	0.14104459
21	0xbd0e0489	-0.034672294
22	0x3dd2b0ef	0.10287654
23	0x3bc025dc	0.005863888
24	0xbe1a19f8	-0.15048969
25	0xbe3aff41	-0.18261434
26	0xb8643247	-5.440626e-05
27	0xbe4fdb08	-0.20298398
28	0xbe2987fb	-0.16555779
29	0xbec6c379	-0.3882101
30	0xbe919cfe	-0.28440088
31	0xbec38943	-0.3819066
32	0xbf1f5765	-0.6224273
33	0xbd545922	-0.051842816
34	0xbad5f348	-0.0016323114
35	0xbe94afa7	-0.29040262
36	0xbead672a	-0.3386777
37	0xbea98e02	-0.33116156
38	0xbdbd7214	-0.09250274
39	0xbe8f632d	-0.28005353
40	0x3f88e92d	1.069616
41	0xbe590b75	-0.21195777
42	0xbed99ac4	-0.4250089
43	0xbf00bc41	-0.5028725
44	0xbe4ca565	-0.19984968
45	0xbf1ae19f	-0.6050052
46	0xbf06a376	-0.5259317
47	0x3d8ef03a	0.06979413
48	0xbe808e72	-0.25108677
49	0xbe5e168c	-0.21688288
50	0xbd52a3c2	-0.051425703
51	0xbe96ce82	-0.29454428
52	0x3e8c89c5	0.2744886
53	0xbd4cc790	-0.049995005
54	0xbf0ddf4f	-0.55418867
55	0x3f25728d	0.64627916
56	0xbeac7f88	-0.3369105
57	0xbea9f057	-0.33191177
58	0xbebede46	-0.37278956
59	0xbf0f73aa	-0.56035864
60	0xbe80bbbf	-0.2514324
61	0xbe9eff8b	-0.3105434
62	0xbe4ad0fd	-0.19806285
63	0x3e475dc2	0.1946936
64	0xbddcf9c7	-0.10789829
65	0xbe23259a	-0.15932313
66	0xbd1503da	-0.036380626
67	0xbe5a971c	-0.21346706
68	0xbe8182c9	-0.25295094
69	0xbe488eea	-0.19585767
70	0xbe75b7f9	-0.23995961
71	0xbec0f35a	-0.37685663
72	0xbe315ab1	-0.17319752
73	0xbe4449a9	-0.19168724
74	0xbed1ea9f	-0.40999314
75	0xbf03bad9	-0.5145698
76	0xbece8a01	-0.40339664
77	0xbec7e2e4	-0.3904029
78	0xbe9a3d02	-0.3012467
79	0xbe9352b1	-0.28774026
80	0xbdca8fb3	-0.0989069
81	0xbe665a66	-0.22495422
82	0x3ec0a5d3	0.37626514
83	0x3e4ec4e7	0.201923

model.8.weight f4 [42, 84]
0	0x3d123a50	0.035700142
1	0xbdceb576	-0.10093205
2	0xbe3fdb8e	-0.18736097
3	0xbd44a465	-0.04800834
4	0xbe306bf3	-0.1722868
5	0xbdc2836a	-0.094977215
6	0x3a68ba03	0.00088778156
7	0x3d57c8ff	0.05268192
8	0xbe30421e	-0.17212722
9	0x3d2b410a	0.041810073
10	0x3b938e61	0.004503057
11	0x3cd67ab3	0.026181554
12	0x3d8fcd6d	0.07021604
13	0x3dab3a3a	0.08360715
14	0x3e3b26a5	0.1827646
15	0xbd11788f	-0.035515364
16	0x3e67a73a	0.22622386
17	0x3dddd1ac	0.10831007
18	0x3dc822e6	0.09772281
19	0x3d7bf07c	0.06150864
20	0x3c8919ac	0.016735874
21	0x3dacd4ec	0.08439049
22	0x3e1eba3a	0.15500727
23	0xbe539e90	-0.20665956
24	0x3c7ff1b9	0.015621596
25	0x3e00bf01	0.12572862
26	0xbe8d2fac	-0.27575433
27	0xbe8acc3f	-0.27108952
28	0xbd6215de	-0.055196635
29	0xbe185455	-0.1487592
30	0xbe809772	-0.25115544
31	0xbc800e3d	-0.01563179
32	0xbdf50e38	-0.11965603
33	0x3e06a3bd	0.13148399
34	0xbd6c47a4	-0.05768551
35	0x3d697d47	0.05700424
36	0x3d8de35f	0.06928133
37	0x3db211fd	0.08694837
38	0x3ee71a6a	0.4513734
39	0x3d983ae4	0.074331075
40	0x3e8bda83	0.2731515
41	0x3cf51bb6	0.02992044
42	0x3c471b23	0.012152466
43	0x3bc770a6	0.006086427
44	0x3c468098	0.01211562
45	0xbe97f327	-0.29677698
46	0xbe83a8d6	-0.2571475
47	0x3d79c38a	0.060977496
48	0x3dcaf619	0.09910221
49	0xbd9ffab5	-0.078114904
50	0x3d4e3e50	0.050352395
51	0x3d00e8a6	0.03147187
52	0xbe5afba5	-0.21385057
53	0x3e1d6878	0.15371883
54	0xbe053778	-0.13009441
55	0xbe23eb62	-0.1600776
56	0x3d2889d0	0.041147053
57	0x3d66b420	0.056324124
58	0xbdda7f00	-0.106687546
59	0xbeb4f1cb	-0.35340723
60	0xbdd426f6	-0.10358994
61	0xbc8c3012	-0.017112765
62	0x3c89be7a	0.01681446
63	0xbd4ef679	-0.050528023
64	0x3ccf7b47	0.025327338
65	0xbc29204e	-0.010322643
66	0x3e00c801	0.12576295
67	0xbdc38619	-0.095470615
68	0xbc09647f	-0.008385777
69	0x3e0f25fa	0.1397933
70	0xbd19162a	-0.037374653
71	0x3e157c26	0.1459814
72	0x3d5faad0	0.05460626
73	0xbdd0979f	-0.101851694
74	0x3d5a73d3	0.053333115
75	0xbdef3167	-0.116793446
76	0xbe1c046f	-0.15236066
77	0xbc2bf0ab	-0.010494391
78	0xbd43624f	-0.047701176
79	0xbd559ce9	-0.052151594
80	0xbe5a771d	-0.213345
81	0xbe1d2019	-0.15344276
82	0xbed427fb	-0.41436753
83	0xbe70cf84	-0.23516661
84	0x3db37812	0.08763136
85	0x3d5af254	0.05345376
86	0xbd739084	-0.059463993
87	0xbda28430	-0.07935369
88	0xbe972a1a	-0.29524308
89	0x3df41f62	0.11920048
90	0x3da0804a	0.07836969
91	0x3d8fbbb1	0.07018221
92	0xbdda6e33	-0.1066555
93	0xbdd4d5b9	-0.10392327
94	0xbde39548	-0.111124575
95	0xbbfb3456	-0.007666151
96	0x3d5f8608	0.05457118
97	0xbe081552	-0.13289383
98	0x3d24d84c	0.04024534
99	0xbdae911d	-0.08523772
100	0x3cafbeb0	0.021453232
101	0xbc8bd189	-0.017067688
102	0xbd1df185	-0.03856041
103	0x3e6c8e76	0.2310122
104	0xbe1d841c	-0.15382427
105	0xbe2081cc	-0.15674514
106	0x3d4bd410	0.049762785
107	0xbd56f2aa	-0.052477516
108	0x3c7e40c7	0.015518374
109	0x3c345232	0.011005925
110	0x3e105d3f	0.1409807
111	0xbd8ade81	-0.067807205
112	0x3dca4089	0.0987559
113	0xbe5446fb	-0.20730202
114	0xbddf8542	-0.10914089
115	0x3d360a70	0.044443548
116	0xbe426adc	-0.18986076
117	0xbba762bd	-0.005108206
118	0xbd04edce	-0.03245335
119	0x3d82caf2	0.06386365
120	0xbd8d65ce	-0.06904183
121	0xbd84a657	-0.06477039
122	0x3b291137	0.0025797614
123	0xbccb9643	-0.024851924
124	0xbf43b377	-0.76445717
125	0xbdf48943	-0.11940243
126	0x3e216107	0.15759669
127	0xbe217369	-0.15766682
128	0xbd0119b6	-0.03151866
129	0x3d8b70ed	0.06808648
130	0x3d7cf012	0.061752386
131	0x3d097361	0.0335573
132	0x3c9d1c6e	0.019178595
133	0xbc0feb5d	-0.008784142
134	0x3de88d7a	0.113551095
135	0x3d516adb	0.051127296
136	0xbe50bedc	-0.20385307
137	0xbdd5d6fb	-0.10441395
138	0xbe3c37b5	-0.18380626
139	0xbed0a2af	-0.40749118
140	0x3d3c0f90	0.04591328
141	0x3d28ee99	0.04124317
142	0xbe190abf	-0.14945506
143	0xbe3f1996	-0.18662104
144	0xbe551b72	-0.20811251
145	0xbd2ad1c3	-0.04170395
146	0xbd9ebd55	-0.07750956
147	0xbe8eeaa4	-0.27913392
148	0xbcddfa73	-0.027096963
149	0xbd202d4a	-0.03910569
150	0xbe93a02b	-0.28833136
151	0xbbfbeb4a	-0.0076879608
152	0xbd5c45fc	-0.05377768
153	0xbdcd3bf9	-0.100212045
154	0x3ce59aea	0.02802797
155	0x3d4db79e	0.05022394
156	0x3d5c7b2c	0.053828403
157	0x3d87c24f	0.06628858
158	0xbdf16a55	-0.11787859
159	0xbdf0269f	-0.117261164
160	0x3d639b41	0.055567984
161	0x3dfc0122	0.123049036
162	0x3cca9d1d	0.02473312
163	0xbce21593	-0.027598178
164	0xbd0b7944	-0.034051195
165	0x3d0ace4a	0.03388814
166	0x3c6bf527	0.014401711
167	0x3cc0f216	0.023552936
168	0x3c05dc7a	0.0081702415
169	0x3d71c5f6	0.05902668
170	0x3ce310c7	0.027717961
171	0xbd9012a9	-0.07034809
172	0xbe90a15f	-0.28248116
173	0xbe539a8f	-0.20664428
174	0x3d0458b6	0.032311164
175	0xbd437103	-0.0477152
176	0xbcf173f7	-0.029474242
177	0xbe0c9aca	-0.13730922
178	0xbde79240	-0.11307192
179	0x3de50c91	0.111840375
180	0x3ccdae49	0.02510752
181	0xbe4508b2	-0.19241598
182	0x3e04ee2a	0.12981477
183	0xbea5d280	-0.3238716
184	0x3e3c54dc	0.18391746
185	0x3e0932a0	0.13398218
186	0x3d2fb857	0.04290041
187	0x3da526e1	0.08064056
188	0x3b99372e	0.0046757674
189	0x3e2e931e	0.17048308
190	0xbd142ab6	-0.036173545
191	0xbe3b2104	-0.18274313
192	0x3c822091	0.01588467
193	0x3e51135e	0.20417544
194	0xbecccc51	-0.3999963
195	0xbef55a58	-0.4792049
196	0x3c19860e	0.00937034
197	0xbe2cf294	-0.16889411
198	0x3df47d0a	0.11937912
199	0x3d6c4d01	0.057690624
200	0xbdceab9e	-0.10091327
201	0x3bbb9d61	0.005725548
202	0x3e5a6d14	0.21330673
203	0xbc3ccfca	-0.01152415
204	0x3cdb363c	0.02675926
205	0xbde2aa60	-0.11067653
206	0x3eea0490	0.45706606
207	0xbb1222e0	-0.002229862
208	0x3e513506	0.20430383
209	0xbe15bbff	-0.14622496
210	0xbe3694bb	-0.17830174
211	0xbe1e333d	-0.15449233
212	0x3d4ae8aa	0.049538292
213	0x3cc4cd4b	0.024023673
214	0x3d2d5a17	0.042322244
215	0xbe35956f	-0.17732786
216	0xbe45aceb	-0.19304244
217	0x3d256290	0.0403772
218	0x3df9c892	0.12196459
219	0x3d4c1a6d	0.04982989
220	0xbea239f8	-0.31684852
221	0x3dd0a544	0.10187772
222	0x3d5583a0	0.05212748
223	0xbe3fb1e4	-0.18720204
224	0x3c52937a	0.012852544
225	0x3d9ee96f	0.07759368
226	0x3d128082	0.035767086
227	0xbd2cdf5d	-0.042205203
228	0xbe6ac951	-0.22928359
229	0xbdccebe0	-0.10005927
230	0xbce5859d	-0.028017813
231	0xbe803524	-0.25040543
232	0x3da96d52	0.08272804
233	0x3e5dbc54	0.21653873
234	0x3cd9f737	0.026607139
235	0xbd872ffb	-0.066009484
236	0xbcdb2e9d	-0.026755625
237	0x3e8cd6e3	0.27507696
238	0x3e07ff7a	0.1328105
239	0xbd03dcc2	-0.032192953
240	0x3c9b0384	0.018922575
241	0x3d6c71ca	0.057725705
242	0xbe211a5d	-0.15732713
243	0xbdbdc5c9	-0.0926624
244	0xbdad6b51	-0.084677346
245	0x3dd704b9	0.10498948
246	0xbc9e8241	-0.01934922
247	0x3d66fef5	0.05639549
248	0xbdd3fa51	-0.103504784
249	0x3b30d262	0.0026980867
250	0xbdb250f5	-0.087068476
251	0xbe40308d	-0.1876852
252	0xbdb838b4	-0.0899519
253	0x3d90e5a1	0.07075048
254	0xbe0d2aeb	-0.13785903
255	0xbb2b486f	-0.0026135703

model.8.bias f4 [42]
0	0x3fb4fbef	1.4139384
1	0xbefcd4b3	-0.49381027
2	0x3fb4e2f3	1.413176
3	0xbe605d28	-0.21910536
4	0xbea690bb	-0.32532296
5	0x3e3484b0	0.17628741
6	0xbe4b3f8b	-0.19848458
7	0xbe98e869	-0.29864815
8	0xbf187687	-0.5955586
9	0xbe888742	-0.26665694
10	0x3f97af65	1.1850401
11	0xbe5ec256	-0.21753821
12	0xbedeefca	-0.4354232
13	0x3e0006cb	0.12502591
14	0x3eeb6399	0.45974424
15	0x3e200a1c	0.15628856
16	0x3d7c0c19	0.061534975
17	0xbe4f77ce	-0.20260546
18	0xbee49848	-0.4464743
19	0x3ea7f16a	0.32801372
20	0xbe4fe318	-0.20301473
21	0xbe18640c	-0.14881915
22	0xbe9070e8	-0.2821114
23	0xbe38a584	-0.18031889
24	0xbe984d45	-0.29746452
25	0xbe1b82c3	-0.151866
26	0xbe9e2de3	-0.30894384
27	0xbe8c691d	-0.27423945
28	0xbebde4ff	-0.37088773
29	0x3f2f3215	0.68435794
30	0xbe8fb8c2	-0.28070647
31	0xbe8e3763	-0.27776632
32	0xbeb0e4e7	-0.3454964
33	0xbe940e9b	-0.28917393
34	0x3e6e603e	0.23278901
35	0xbe57a1b3	-0.21057777
36	0xbe0e26aa	-0.13881937
37	0xbd39f9be	-0.04540419
38	0xbed769db	-0.4207295
39	0x3f8eb7e3	1.1149868
40	0xbe0257af	-0.12728761
41	0xbd8f6ee2	-0.07003571

model.10.weight f4 [1, 42]
0	0x3e9113fc	0.2833556
1	0xbcf9343c	-0.030420415
2	0x3e801bb8	0.25021148
3	0x3b952d07	0.004552487
4	0xbb320dc6	-0.0027168854
5	0x3d7571eb	0.059923094
6	0xbd324271	-0.043520395
7	0x3c71f5ea	0.014768103
8	0x3df9dc41	0.12200213
9	0x397027d9	0.00022903028
10	0x3e2aa26b	0.1666352
11	0xbe0318c4	-0.12802416
12	0x3c43ef9e	0.011958985
13	0xbc931295	-0.017953197
14	0x3bada1d0	0.0052988306
15	0xbd90de10	-0.07073605
16	0x3dd384dc	0.10328075
17	0x3cc0ffd5	0.02355949
18	0xb979f8e9	-0.00023839217
19	0x3e67f855	0.22653325
20	0xbe113041	-0.14178564
21	0x3de907e3	0.113784574
22	0x3d3738f1	0.044732038
23	0xbd4f7177	-0.050645318
24	0x3c94ecc1	0.0181793
25	0xbca137df	-0.019679962
26	0xbbbf49a9	-0.0058376384
27	0x3d178211	0.036989275
28	0xbe9f935f	-0.31167123
29	0xbe65a56e	-0.22426388
30	0xbc56389c	-0.01307502
31	0xbcb91753	-0.02259413
32	0xbca8ac30	-0.020589918
33	0xbb6f0f90	-0.0036477782
34	0xbd8f7403	-0.07004549
35	0x3db0dc31	0.08635748
36	0x3d045907	0.032311466
37	0x3de22a78	0.110432565
38	0x3d99c265	0.07507781
39	0x3df27eab	0.11840566
40	0x3d028e42	0.03187395
41	0xbdf5e044	-0.12005666
