checkpoints/korea-simple-8-200.pth (torch, 607925 bytes, 15 tensors)

model.0.weight f4 [42, 40]
00000000: 9d19 75bd 96ab 23be f7f7 0b3e 1291 fd3b
00000010: 5286 c33d 6422 16be 43d6 143d db4d 21be
00000020: 1fbb 25be 610c dd3d b032 0d3d ac5a 033e
00000030: e960 1cbd ddfe d93c e379 a53d 355b 5d3d
00000040: 0c3b a3bd c875 28be 8316 9a3d 69bf d43d
00000050: e113 8e3d 5329 dcbc ab67 9dbc f82c 17be
00000060: f5e3 2fbe 823d 2d3c 4079 883d 3a07 2e3d
00000070: 0350 f83d 27b1 22be 1a4d 2bbd c31d 61bd
00000080: 5b70 25be 84eb 343c 5a1d 713d d834 18bd
00000090: c01b 15be 1ac7 cabd a993 933b 6be8 fdbd
000000a0: 3e8b 1cbe 7fba 9abe dc1b 0dbf 2036 7ebe
000000b0: 766a 253f 630d 11be 0343 57bd 5c8f 10be
000000c0: a49a aa3e e43f bd3e 3a98 29bf 9459 68bf
000000d0: b146 6dbe 498b a5bd 286f 223f 5176 f83e
000000e0: f3c6 0fbf 5988 263f 79a5 97bc dcc6 003f
000000f0: 0c66 a13d f836 67bf c4da 11be 78b7 69bd
00000100: 7e9d 03be 3352 a83e 0271 c8be 53d2 09bf
00000110: 9d17 c5bf 5aa2 2f3f aa3a 2ebe 03ac d73e
00000120: 8a69 48bf e43e 413f 6a0f 033f 937f d03d
00000130: 4e62 803f 9428 2dbf 3980 0c3f 2876 95be
00000140: 35a3 cdbe 7814 22be 3a68 8f3e bd48 a73e
00000150: 6e9c 3b3d d9b8 0c3f 6de2 c9be dc99 24be
00000160: 8dc3 09be f715 a53d a73c 89be 5710 c4bc
00000170: 1064 afbe 7a77 1d3e 9cdf 013f f483 483e
00000180: 52e4 af3c 917a 1b3e 741a f639 fd29 d53d
00000190: 9b68 09be 6cce 32be 948a 3539 4606 87be
000001a0: 4779 113e b12b 3cbe 07ca 0a40 e2b9 843f
000001b0: 7547 2b3f d6b2 983d fd27 a2be afc1 5b3f
000001c0: 19a0 8c40 ff97 b03e 7d70 69be 10d5 95be
000001d0: c2e4 06bf c1ed ccbe c758 05bf 16e4 473e
000001e0: c1d3 35be 8142 71be 35b6 82be def2 c3bd
000001f0: d3a9 923d 263b f53d 962a f23d 603f 1bbe
00000200: c753 c43d 9c7b 363e 1ea4 ecbc c604 9bbe
00000210: ea74 2abc bc4b ed3d c4bc 1cbe 13b6 a73d
00000220: 0762 0abe 7d35 1bbe 904e 7cbd f6ad d1bd
00000230: a510 e13c 1d7f 59bb 9a5f e13d 4426 efbd
00000240: ae25 3b3d 286e 29be a6d2 bbbd 1211 16bd
00000250: f236 86be 33dd fd3d f8ca 5e3d 58f3 483c
00000260: c09a 693b 08f9 3f3d 59c7 1cbc 7c45 42be
00000270: 969d d1bd 253a 9d3d 7def 04be 60ea 0e3e
00000280: 46a2 a13e a297 2c3f c5ad 873d e5dd a4bc
00000290: 1f59 8dbe 6897 08bf b1ed 233f c0de 273d
000002a0: 42f5 b23e 2412 8d3e f8b5 723d 9002 7f3e
000002b0: c175 5a3e 2444 16bd 7106 233e a2ac d83e
000002c0: f036 553e eeba d23e db27 b33d ebcb 35be
000002d0: 48db 633e 70a5 12bf 1559 ad3c c8c9 2d3e
000002e0: e7af 2bbe 6f2b 623d 0a0c 74bf 2e4e 6fbf
000002f0: dd1a 76bf 7dd9 48be a47f e8be 560f 4b3d
00000300: 960c 393f 92de 7ebe f260 0abe 2bc1 e83e
00000310: 4448 84be 7053 843f f4b9 193e ce40 f8be
00000320: 7170 9cba 8ecb c2be d5f8 b2bd 0cac 563d
00000330: 06de 393d d6f5 773e 664d a2be c8df 12bf
00000340: bacf 6dbe 4a80 d93d 64c8 9dbe 837b c5be
00000350: 67bc 31bf ef3b 35bf 07ca 21bf 50d0 8cbf
00000360: e7df d5be 158e ff3e 132f 543e 90b1 453e
00000370: 6637 9ebd eee7 20bc 71c7 523e 4a23 fdbe
00000380: d51a f13e 5c87 203d 427d 213e 2040 813e
00000390: 78e6 da3e 8712 6e3e 555b a43e 14cc 7ebe
000003a0: 8ebf 07bf 0882 d63e 61ca a63e cedc b0bd
000003b0: 9e11 203d aa75 5a3f 1449 0a3f 815d d6be
000003c0: 75e5 15be fe04 17be 5b93 823b 779a ea3d
000003d0: c878 fe3d c547 ec3d 6b4e f6bc 1f03 eebd
000003e0: 93c8 c2bd d03b 803d d13e e8bd 5b0a 863c
000003f0: d97b e53d f467 903d 03b4 193e e182 883d
-0.05983888 -0.15983424 0.1366881 0.007738241 0.09547104 -0.14661556 0.03633715 -0.15752356
-0.16184662 0.10793377 0.034472167 0.12827557 -0.03817836 0.026610786 0.08079889 0.05404206
-0.07970247 -0.1645118 0.07523825 0.10388071 0.06937385 -0.026875174 -0.019214472 -0.14763248
-0.17176802 0.010573747 0.066637516 0.04248736 0.12124636 -0.15887891 -0.041821577 -0.054960024
-0.16156141 0.011042479 0.058865882 -0.03715977 -0.14561367 -0.09901257 0.0045036864 -0.12397846
-0.15287492 -0.3022041 -0.55120635 -0.24825335 0.6461557 -0.14165263 -0.05255414 -0.14117187
0.33321106 0.36962807 -0.66247904 -0.90761685 -0.23171498 -0.08083207 0.6345086 0.48527768
-0.5616295 0.650518 -0.01851152 0.50303435 0.07880792 -0.9031825 -0.14243609 -0.057059735
-0.12853047 0.32875213 -0.39148718 -0.53836554 -1.5397831 0.68607104 -0.17014566 0.42123422
-0.7828604 0.7548659 0.51195395 0.10180583 1.003 -0.6764004 0.5488315 -0.2919171
-0.4016358 -0.1582812 0.28009206 0.32672682 0.04580348 0.54969555 -0.39430562 -0.16074318
-0.13453503 0.0806083 -0.26804087 -0.023933573 -0.3425603 0.15377608 0.50731826 0.19581586
0.021471176 0.15183474 0.00046940485 0.10408399 -0.1341881 -0.17461556 0.0001731313 -0.26371974
0.1420642 -0.18376042 2.1685808 1.0369227 0.6690591 0.07455985 -0.31671134 0.8584241
4.394543 0.34490964 -0.22796817 -0.29264116 -0.52692807 -0.40025142 -0.5208859 0.19520602
-0.17756559 -0.23560525 -0.25529638 -0.095678076 0.07161298 0.11974172 0.11824529 -0.15160894
0.09586292 0.1782059 -0.02888685 -0.3027708 -0.010403851 0.11586711 -0.15306383 0.08189025
-0.13513957 -0.15157123 -0.06159836 -0.102382585 0.027473757 -0.0033187338 0.11004563 -0.116772205
0.04569023 -0.16545928 -0.091710374 -0.036637373 -0.26213795 0.12395706 0.054392785 0.012265049
0.0035645217 0.046868354 -0.009569013 -0.18971819 -0.10235135 0.07677106 -0.12981983 0.13956594
0.31569117 0.67418873 0.06624941 -0.020125339 -0.27607056 -0.5335603 0.64034563 0.040983915
0.34952742 0.27552903 0.05925557 0.24903321 0.21333982 -0.036686078 0.15920426 0.42319208
0.20821738 0.4115824 0.08747836 -0.1775357 0.22251618 -0.5728369 0.021160642 0.16971505
-0.1676632 0.055217203 -0.9533087 -0.9347867 -0.9613474 -0.19614215 -0.45409882 0.049575172
0.7228483 -0.24889591 -0.13513544 0.45459875 -0.25836384 1.0337963 0.15012342 -0.48486942
-0.0011935366 -0.38045925 -0.08738867 0.05241017 0.045377754 0.24214873 -0.31699675 -0.57372713
-0.23223773 0.10620172 -0.30816948 -0.38570794 -0.69428104 -0.70794576 -0.63198894 -1.1001072
-0.41772386 0.49913087 0.20721082 0.19306016 -0.0772541 -0.009820921 0.20583893 -0.49440986
0.47090784 0.03919159 0.15770438 0.25244236 0.4275396 0.23249255 0.3210093 -0.24882537
-0.53026664 0.4189608 0.32576278 -0.08635865 0.0390793 0.8533579 0.5401776 -0.41868213
-0.14638312 -0.14747998 0.0039848513 0.11455243 0.12425381 0.115371265 -0.03006669 -0.11621689
-0.09510913 0.06261408 -0.11340106 0.01636236 0.11205263 0.070510775 0.15010075 0.06665588

model.0.bias f4 [42]
00000000: 086a 2fbe 620b 023e 670a 76be f997 afbd
00000010: b894 b93e 9040 863e bce8 2abc 9240 1ebf
00000020: 3297 8d3f a938 0dbd 6fa1 993e ed3a efbc
00000030: b7a5 063e b0f0 b5bd 3608 89be 55cb 61bd
00000040: a492 b73d 0ff4 313c e37b 81bf 24f0 cfbd
00000050: 932c ec3d 27eb 463f 38d2 2abe c785 a5bf
00000060: 8096 ca3d 1c7d 553d 1a1d 9cbf 33f5 90bf
00000070: b80e 1c3d fde4 19be b0a9 0dbe a7bb f93d
00000080: 8c91 ea3d 965c 92bc bd36 103f f7d8 65bf
00000090: 4a89 4c3d cf19 053f 4e59 dfbd 0088 fdbe
000000a0: 4a7f e53d 1e5b 97bf
-0.17130291 0.12699655 -0.24027406 -0.08573908 0.36246276 0.26221132 -0.010431465 -0.61817276
1.1061766 -0.034477863 0.30005977 -0.029202903 0.13149153 -0.08883798 -0.26764077 -0.055125553
0.08963516 0.010861411 -1.0115932 -0.10153225 0.11531939 0.77702564 -0.16681755 -1.2931451
0.09891987 0.052121267 -1.2196381 -1.1324829 0.038099974 -0.15028758 -0.13834262 0.12193995
0.11453542 -0.017866414 0.56333524 -0.8978419 0.049935617 0.51992506 -0.109057054 -0.49517822
0.11205919 -1.1824682

model.2.weight f4 [84, 42]
00000000: de80 fd3d cf34 67be 6cf3 bf3d c033 84bd
00000010: a3be 18be e60b 51be 616a 80bd c2b6 c5bd
00000020: 8c09 64be 9d5a 113d 230c 11be f1e6 1c3e
00000030: 87b8 513d c48a 99bd a1ac 8cbd 3eac 19be
00000040: f66c d73d 61a2 193e 2167 5b3d ad1a e53c
00000050: 3a9c 9bbd 61fb 033d 3747 0d3e 5889 6fbe
00000060: 4bff e8bd 5a35 94bd 5437 eabd 29cf dbbd
00000070: 0828 0c3e 280d 6fbd 024f 93bc a99e 0cbe
00000080: 07e2 b93d ecc5 e03d a643 a4be 0a70 403e
00000090: b93f 913d b3c0 01be 380b 0d3e bb77 64be
000000a0: 3bc2 a1bc 8a28 65be 84ab 333d f333 bcbd
000000b0: 54d8 02be 0259 c1bd 1c47 91bc 6e6d 463c
000000c0: df80 9f3c 6978 cebd 4dc1 6bbd 45aa bfbc
000000d0: 14ce 10be 802e d9bd f00a 123e e67c 1cbe
000000e0: e209 f93d b0ce 8ebd a8e7 e03d f61e ebbd
000000f0: 1ee3 00be 6437 d9bd 6843 5abb ea8d ec3d
00000100: b1d6 b33d 61a2 f7bd 4063 db3d ec4e d8bc
00000110: 0b8d 53be 8140 96bd 0b77 5fbc f005 5f3d
00000120: 84fa 103e 78dd 9aba 83d5 05be 82b7 01bd
00000130: 74b7 54bd e497 a2bd 8ecd 173e f3ac 02be
00000140: 17bd 313d 0a1e 88bd c8b3 97bd 8e2f d0ba
00000150: 6a56 b8bd 13e6 433f 48f2 f3be cb55 f5bd
00000160: 74b8 1dbf 2748 c0be 5d2b a4bd 7a52 75bd
00000170: 58fc 153f 56f9 a23d 8738 a4be fb30 adbd
00000180: bf2b 0ebd 84e9 0abe 5cf6 9e3c c1d7 343d
00000190: 5bdb 2ebe a887 803d c29c 02bf 4e50 663e
000001a0: 76be 193e da8c cbbe e5a9 b13e c6f3 fcbd
000001b0: 03fb 9b3d 2459 c33c 17f2 f43d 21f1 23be
000001c0: 267c 673d 7fdf 1bbe 940a 183d c77b 8ebd
000001d0: 45a2 0f3e 71df 77bb 738e 9bbf c959 7fbc
000001e0: c41e d4bd 23b4 a1bf 1892 f93d 4843 eabe
000001f0: fa55 4a3d cbde 053f 3404 023d d99d 493d
00000200: 8095 01be 51c1 c93d 575e 5dbe 9f3c b3bd
00000210: 5e71 223d 894f 51be 7e8c 09be 1232 213d
00000220: 8ea0 36bd ca24 053e 4c94 abbd e51e 0abe
00000230: 5dd2 e3bd 684f ccbd 755f 69bd 3538 513c
00000240: edc0 03bd 0c9a ca3d 6d86 97bd f33e 063d
00000250: 7322 3e3d 7953 41be def0 00be dbc5 d43c
00000260: e26f 1d3d 310f 0bbe 10ab 9e3d fc13 09be
00000270: 6643 c53c 2ac3 e5bd 74f6 c1bd 1449 55bd
00000280: e79c 9b3d b4bc 7dbe 87e1 a43d 9f47 20be
00000290: e969 0a3e 13da f5bc 36cc a93d a3f2 c93c
000002a0: 73a0 aebd 4222 4fbc 5261 123e acc5 073d
000002b0: 8ab7 053d bf66 efbd c8fd 29bd c033 46be
000002c0: 842f 42be 05fa 8abd 1ce9 f8bd 2946 c33c
000002d0: f974 313d 6195 b53d 084d 22bd 0c8f 9e3d
000002e0: da59 793d 25f8 be3c 5731 f23d 9916 443d
000002f0: 6685 103e 1290 ab3c c8e7 a4bc c061 aabc
00000300: 69c4 10be c79d e63d 2645 0abe f498 22be
00000310: b3a9 d33d bd99 8a3d b876 b03d 9059 48bd
00000320: 8fb6 44bd 90b9 70bd 6719 853d 3c04 55bc
00000330: a037 fbbd 52b2 abbb b149 983b 86f0 1bbd
00000340: 02fc 5dbd 60d8 253d 5689 363d 8b62 6f3f
00000350: b435 40bf a0aa 97bd 0533 10bf d694 95be
00000360: 9ad3 28be 0af9 9fbe d2fb 663e 7a4b 733c
00000370: c90c 8b3e 820b 153e fa66 0fbd 22f0 cdbd
00000380: 457f 823e f180 d03c d963 15be a1b6 85bd
00000390: 3ea4 743e a4f6 7abc 61a2 ecbc e0cf a8bf
000003a0: 927c 5ebe 7a54 1e3e 225e 7abd dcf7 4cbc
000003b0: 1a41 bdbe 578c 093e 9e2d 01be fdc6 b7bd
000003c0: ac9c 803c 3714 29be d35c f93d b51b b9bd
000003d0: e069 9abf 963b 0e3f bc67 0cbb c40d 37bf
000003e0: 8b2b ed3d 378f 03bf bf31 c73b 08c5 c93e
000003f0: 2b71 0e3d 4c2f 7b3d 382c 40be 798a 03bd
0.12378095 -0.22578739 0.09372601 -0.06455183 -0.14916472 -0.20414695 -0.0627029 -0.09653999
-0.22269267 0.035486806 -0.14164786 0.15322472 0.05120137 -0.074971706 -0.06868864 -0.15007111
0.105188295 0.15003349 0.05356515 0.027966822 -0.07598157 0.032222155 0.13796698 -0.23392236
-0.11376818 -0.072367385 -0.11436334 -0.10732872 0.13687146 -0.058362156 -0.01798201 -0.13732399
0.090763144 0.109752506 -0.32082862 0.1879274 0.07092232 -0.12671165 0.13773811 -0.22311299
-0.019745937 -0.22378746 0.043864742 -0.09189596 -0.12777835 -0.09440805 -0.017734103 0.012111051
0.01947063 -0.1008156 -0.057557393 -0.02339662 -0.14141113 -0.10604572 0.14261985 -0.1528202
0.12160088 -0.06973016 0.10981685 -0.11480515 -0.12586638 -0.10606268 -0.0033304337 0.115505055
0.087811835 -0.12091518 0.1071229 -0.02640482 -0.20659272 -0.07336522 -0.013639222 0.05444902
0.14158064 -0.001181527 -0.1306973 -0.031669147 -0.051932767 -0.07939127 0.14824507 -0.12761287
0.04339322 -0.066463545 -0.074073374 -0.0015883313 -0.09000857 0.7652294 -0.47645783 -0.11979254
-0.6160958 -0.37555048 -0.080160834 -0.05989311 0.5858817 0.07957713 -0.32074377 -0.08456608
-0.03470969 -0.13565642 0.019404583 0.04415107 -0.17075865 0.062758744 -0.51020443 0.22491571
0.15014061 -0.397559 0.34699932 -0.123511836 0.07616236 0.023846216 0.119602375 -0.16009952
0.05651488 -0.15221976 0.037119463 -0.069572024 0.14026745 -0.003782239 -1.2152847 -0.015585371
-0.103574306 -1.2633098 0.12186068 -0.45754457 0.0493984 0.5229308 0.03174229 0.0492228
-0.12654686 0.09851325 -0.21618019 -0.08751797 0.039658897 -0.20440497 -0.134325 0.03935439
-0.04458671 0.13002315 -0.08377895 -0.13488348 -0.11124108 -0.09976083 -0.0569758 0.012769748
-0.03216641 0.09892663 -0.073986866 0.032774877 0.046419572 -0.18879499 -0.12591884 0.025973251
0.038436778 -0.13580014 0.07747471 -0.1338653 0.02407999 -0.11218865 -0.09470835 -0.052071646
0.07598286 -0.24779016 0.080508284 -0.15652321 0.13516964 -0.030011212 0.08290903 0.024651831
-0.08526697 -0.012642445 0.14294937 0.0331475 0.03264574 -0.11689519 -0.04150179 -0.19355679
-0.18963438 -0.06785969 -0.12153837 0.023837166 0.043324444 0.088663824 -0.039624244 0.07742128
0.060876705 0.023311684 0.11825817 0.047873113 0.14113387 0.020942722 -0.020130053 -0.020798564
-0.14137425 0.112605624 -0.1350294 -0.1587866 0.10335102 0.067676045 0.08616394 -0.04891354
-0.048025664 -0.058770716 0.06498986 -0.013001498 -0.12266469 -0.0052397633 0.0046474566 -0.038071178
-0.05419541 0.040489554 0.044564568 0.9350974 -0.75081944 -0.07405591 -0.5632785 -0.29215115
-0.1648697 -0.3124469 0.22557 0.014849538 0.27158192 0.14555171 -0.035010315 -0.10055567
0.25487724 0.025452109 -0.1458887 -0.06528974 0.23890778 -0.015317593 -0.028886022 -1.3188438
-0.21727207 0.15461913 -0.06112493 -0.012510266 -0.3696373 0.13432442 -0.12615058 -0.08973501
0.015699707 -0.16511618 0.12175908 -0.09038488 -1.206356 0.5555967 -0.0021424135 -0.7150538
0.11580571 -0.51390404 0.0060789282 0.39408135 0.034775894 0.061324403 -0.18766868 -0.03211448

model.2.bias f4 [84]
00000000: fd6c 6abe cda6 c5bd 0fd6 443e e8f1 8bbd
00000010: fe6d 10be 17a2 82bf b00c 80be 4e36 27bd
00000020: 24c2 c8bd c267 cebd 3d2c 463d 396f d9bd
00000030: 0fef 643e 71e0 d1be f046 44be 1c6b 83be
00000040: 2fd7 b53d 61c3 a6bd 2e87 75bd 2c8a 21bd
00000050: c003 0cbf 3feb 1dbf 5d6f 09bf 562f 07bf
00000060: c830 8ebf 1879 ffbe fbc3 0ebe 1b10 3bbf
00000070: 60b8 58be d853 2dbd ee55 42bd 90ef 44be
00000080: 24b5 f93d ac97 24be f368 b03c 049d c8bd
00000090: 8e3e 63be 180f 54be 0ed1 573d 5562 6d3d
000000a0: 7f92 713d c6be 2dbe 59e0 03bd 707e 1cbf
000000b0: 4bc3 1e3e c468 153e de2f 94be 9675 81be
000000c0: 8f78 cb3e 8408 42be fdee 0abd 2875 f33e
000000d0: 6c65 933d 58cd c8bd fcde 7cbf b7ee 5fbe
000000e0: ca3b 41be ffe8 bcbd ba9b 42bf b93a 57be
000000f0: 6789 773f 442c 41bf beda 3bbe 41bf 10bd
00000100: adf6 1a3f 4ca9 ee3a 6669 033f c563 b6be
00000110: 77a0 62be 1f4a ee3d a20c 54bf 2f41 8dbd
00000120: 3068 10be a24e 9fbe 600c 23be ee24 58bf
00000130: 89e8 7dbe 58d7 f6bc cd03 d1bc e1d6 12bf
00000140: 48f2 53bf 8c5f 95ba 396d 87be e9c6 27be
-0.22893138 -0.09650955 0.19222282 -0.06833249 -0.14104459 -1.0205716 -0.2500968 -0.040823273
-0.098026544 -0.10078384 0.048382033 -0.10616917 0.22356819 -0.40991548 -0.19167686 -0.25667655
0.08878934 -0.08142734 -0.05994337 -0.03943841 -0.5469322 -0.6168708 -0.5368555 -0.52806604
-1.1108637 -0.49897075 -0.13941948 -0.7307145 -0.21164083 -0.042316288 -0.04744523 -0.19232011
0.12192753 -0.16073483 0.021534419 -0.09795573 -0.22191831 -0.20708883 0.052689604 0.057955105
0.0589776 -0.16967306 -0.032196376 -0.6113043 0.15504186 0.14590746 -0.2894277 -0.25285023
0.39740416 -0.18948561 -0.033919323 0.4755032 0.07197079 -0.09804791 -0.9877775 -0.21868406
-0.18870464 -0.09224128 -0.7601887 -0.21018495 0.96694034 -0.7545817 -0.18345162 -0.035338644
0.6053265 0.0018208413 0.513327 -0.35622993 -0.22131525 0.11635231 -0.82831776 -0.068971984
-0.14102244 -0.3111468 -0.1592269 -0.8443135 -0.24795736 -0.03013198 -0.025514508 -0.5735913
-0.82791567 -0.0011396273 -0.26450518 -0.16384472

model.4.weight f4 [168, 84]
00000000: dc82 16bd 6a4c 7dbd a197 b5bd c6d2 a03c
00000010: 1cee 4eb8 e2ac 34bd 6350 833c fdf8 e8bd
00000020: 00a9 353d 0b50 75bd 9c9a 95bd 8703 63bd
00000030: 9661 663d c2e9 a23c 16e5 bebd 7882 e5bc
00000040: 96fb a73d 87f7 2a3b 6b71 4a3b a145 333d
00000050: 338a 5abd 9fa3 7bbd 7672 07be 4e14 b7bd
00000060: 6b9c 06be 4843 fabd d85d 15bd 40b9 edbd
00000070: 7a18 dbbd ec2b a23d 8a9b 043c 9a62 02bd
00000080: a281 383d 629d 993d 482e bdbd 480a 77bd
00000090: 40d5 6f3d 1050 613d 14b0 083d e690 a53b
000000a0: 1e37 6d3d 96ee 123d 7968 04be 4ff0 9cbd
000000b0: 874a 71be 10cf 533d 15ba 12bd dfb2 6e3c
000000c0: 0c23 e9bd dc50 bc3d d8c4 413c 6226 0fbd
000000d0: 3b27 953b 9a3e 1fbd d731 0abc 487c 803d
000000e0: 42d1 03bd 5579 563c c3f5 5ebd bb25 943d
000000f0: 1fd2 163d 0ba8 94be b728 953d 6ca1 f5bc
00000100: 1618 cbbd 4e80 c4bd a17f 203d 728b e5bd
00000110: 3d9d a5bd 48c6 613b 454f a9bd 5360 cfbd
00000120: d621 8dbd cae5 48be 02d3 e8bd 18e4 11be
00000130: 6536 763d 2aae d13c 6c4f ccbd cb96 cbbd
00000140: 656c 27bd 1cd8 14bd 029a 7bbd 4a7a 73be
00000150: ee8c c4bb b430 b3bd 6b6d b93c 094b 02bd
00000160: 232e 1dbd 8918 663d 6c94 8b3d 4fe7 f4bc
00000170: 7a4b 9bbd 0392 143d 4fa8 b7bd 8c7d c4bd
00000180: 3158 4cbd 8c18 bdbd 2e22 f3bc 6f23 5ebd
00000190: 3785 ed3b 5623 26bd f4a1 63bc 9ae2 b8bd
000001a0: 81b3 2abd 5e3e 22bd 34d2 edbc f7b3 01be
000001b0: b4ee 0c3c 23f6 bc3d 4267 8b3d cfab 24be
000001c0: 8cf2 5cbd 7b80 e73c 735a 3cbb 9519 0dbd
000001d0: a3d0 0abe 75ad 013d 8874 a23d 4da2 5abd
000001e0: c6d5 2ebc b30b 96bd a12e ecbb ceb7 34bd
000001f0: c9ef 08bd ba3b ba3d 6947 403c 82d5 91bc
00000200: c745 a7bd f500 313c a067 0f3d f8c8 97bd
00000210: 84a4 3c3d 0252 19bd 35bc 2c3d 1a10 b9bd
00000220: 16cc b4bd 08ee 03be 666a c4bd 3b33 273a
00000230: 21af e1bd 22ef b23d 53c4 e2bd 99a5 263b
00000240: 0e5e eebd d321 0ebe 6f1e 233d 1a23 413c
00000250: 8314 babd bf94 bfbc 0d4a 70bd 929b a6bc
00000260: 9d3f 72bb 2353 c8bd 613f 853c 6c46 97bd
00000270: c3e9 2c3d cdf6 61bd a466 cfbc a781 853c
00000280: b722 7d3c d540 ce3d 2186 c43d c5f8 2abc
00000290: 218c 0ebe 7743 8c3d f2ca a9bd d5e8 b0bd
000002a0: e8a7 98bd 3014 9339 670a fbbd 644f 943d
000002b0: a4ee bbbd 26f4 3dbd 4c8a d1bc 7062 0d3d
000002c0: 02b3 2bbc 681d d1bd 8e73 a73d f119 14bd
000002d0: 1609 133d 00c1 a53d a761 aebc d535 673d
000002e0: c952 b13d 6e94 cdbd 717b 3cbd 7d87 6abd
000002f0: 597b 363d 1730 c0bd 7438 d2bd ddb9 5f3d
00000300: 82ba 1dbe 745e 7dbd 0f5e cfbd 9f1e 62bd
00000310: 953d 3fbd 7b50 04bc 73f8 383d 9330 a53d
00000320: 688b 403d e486 c53d 5fde 7ebd fbad 23bb
00000330: 04fe a0bd 80ca 963c e87e 903c 52df 82bc
00000340: ee04 24bd 9354 7c3d 9447 4fbc 0b1c 62bd
00000350: a8f5 82bd ea80 cebd f8e3 3bbd 8629 1abd
00000360: 4716 c23c f0f4 0bbd 921d 8bbd 989b d8bd
00000370: 49f3 87bd e537 b23d d035 b4bd 627d 1fbd
00000380: fb49 50b8 a4b6 b1bc a465 49bd 98c2 d83d
00000390: 2435 9bbd a98a aebd f2fe da3d c4ce cdbd
000003a0: c681 62bd 1a23 d9bd f250 bbbd 10e1 b13d
000003b0: 12da cfbd ca7a de3c 5461 69bd 4408 033d
000003c0: 7563 01bc d5b4 b3bd 7131 9abd b679 22be
000003d0: 0b03 d63c fe5a 4a3d bd50 df3d fc83 43be
000003e0: daf8 c7bc 849a 773c a23f 2bbd 0d91 cdbd
000003f0: 72b7 abbd 7716 d6bc ade5 073e 6418 efbd
-0.03674589 -0.061840452 -0.088668115 0.019631755 -4.9335984e-05 -0.044110186 0.016029542 -0.11375616
0.044350624 -0.059890788 -0.0730488 -0.055423286 0.05624541 0.019886855 -0.093210384 -0.028016314
0.08202283 0.002608748 0.0030890356 0.043767575 -0.053354453 -0.061435338 -0.13227257 -0.0893942
-0.13145606 -0.12219864 -0.03646645 -0.11607599 -0.10698028 0.07918534 0.008093724 -0.031832315
0.045045502 0.075007215 -0.09237343 -0.06031254 0.05855298 0.055007994 0.033371046 0.0050526736
0.057913892 0.035872065 -0.12930478 -0.07663023 -0.23563586 0.051711142 -0.035821993 0.014569013
-0.11383638 0.0919511 0.011826716 -0.034948714 0.004551796 -0.03887806 -0.008434734 0.06273705
-0.032181986 0.013090451 -0.054433595 0.07233759 0.03682148 -0.29034457 0.07283156 -0.029984199
-0.099167034 -0.09594785 0.039184216 -0.11208238 -0.080866314 0.003445046 -0.082670726 -0.10125794
-0.06891219 -0.19618908 -0.113683715 -0.14247167 0.06011047 0.025595743 -0.09976086 -0.09940871
-0.040874857 -0.03633891 -0.06142617 -0.23777118 -0.0059982454 -0.08749524 0.022635182 -0.03180984
-0.038374078 0.056175742 0.068154186 -0.029895453 -0.075827554 0.03627206 -0.08967649 -0.09594259
-0.049888793 -0.092331976 -0.029679384 -0.05423301 0.0072485465 -0.040561043 -0.013893593 -0.09027596
-0.041675095 -0.03961026 -0.029030897 -0.12666307 0.008601833 0.09226634 0.06806804 -0.16081165
-0.05394225 0.028259506 -0.0028740435 -0.034448225 -0.13556151 0.031659562 0.07932383 -0.05337744
-0.010671085 -0.0732645 -0.007207707 -0.044120602 -0.033431802 0.09093423 0.0117357755 -0.017802004
-0.08167606 0.010803451 0.035010934 -0.074113786 0.04605533 -0.037431724 0.042171676 -0.09036274
-0.08827989 -0.1288377 -0.095906064 0.00063781784 -0.11019731 0.08737017 -0.11072602 0.0025428294
-0.11639033 -0.1388009 0.039823946 0.011788154 -0.090859435 -0.023386357 -0.05866437 -0.020337854
-0.0036964186 -0.09781482 0.016265573 -0.07386479 0.04221512 -0.05516701 -0.025317498 0.016297175
0.015450171 0.100709595 0.095958956 -0.010435288 -0.13920642 0.068488054 -0.08290662 -0.08638159
-0.074539006 0.00028053066 -0.122578435 0.07241705 -0.091763765 -0.046375416 -0.02557864 0.034517705
-0.0104796905 -0.10210687 0.08176337 -0.036157552 0.035897337 0.080934525 -0.021286799 0.056447823
0.08658368 -0.10038076 -0.04601616 -0.057258118 0.044551227 -0.093841724 -0.10264674 0.054620612
-0.15403178 -0.061857656 -0.10125362 -0.055204984 -0.04668959 -0.008075829 0.045158815 0.080659054
0.04700795 0.09644869 -0.06222379 -0.0024975527 -0.0786095 0.018407106 0.017638639 -0.015975628
-0.040043764 0.061604094 -0.012651343 -0.055202525 -0.063945115 -0.10083182 -0.045871705 -0.037637256
0.023692263 -0.034169137 -0.067927495 -0.10576552 -0.066382 0.08702067 -0.087993264 -0.038937934
-4.9659964e-05 -0.021693535 -0.049169198 0.10583991 -0.07578495 -0.08522541 0.10693158 -0.10049203
-0.055299543 -0.10602398 -0.091462985 0.086855054 -0.101490155 0.02715816 -0.056977585 0.031990305
-0.007897248 -0.08774725 -0.075289614 -0.15866742 0.026124498 0.049403183 0.109040715 -0.19093317
-0.024410654 0.015112523 -0.04180873 -0.10037432 -0.08384599 -0.026133759 0.13271208 -0.11674574

model.4.bias f4 [168]
00000000: 226e a9be 9a5b 1ebb ccfc 76bd 5d8b 643c
00000010: c991 873f 92c6 923c a988 24be 80bc 2abd
00000020: e57e 0abd edeb 27be c630 18be 9a6b 13bc
00000030: 4774 b1be f9c2 f4bd ebd0 4abe 1664 19bb
00000040: 833d d8bd 9db7 3dbe ba56 08be e0d4 44be
00000050: a11e e53d b4e6 c4bd 58b0 5fbe 7872 ebbd
00000060: 3451 3bbe bbbd f8bb 0238 efbd 77f0 28be
00000070: 5fcf d73d e8bc 613d d797 21be 1c9e 09be
00000080: 6425 2a3e 7086 17be 4255 82be d1ab 3cbd
00000090: 4b4f 07bf 0911 efbd 6cc8 8ebe 788e 52bf
000000a0: b3fa dcbc 3463 073e 76a7 3fbe a6a3 82be
000000b0: 6e37 44be 96ed 68bd 2ce5 a6be b368 3dbf
000000c0: 119c dcbd 5db8 27be 864b 2bbe 96bb aebd
000000d0: 23e7 85be ce74 c4bd abdb 57bd 9442 fabd
000000e0: b5cb 02bd 5236 04be 95e5 5d3e 611f 42be
000000f0: fe49 98be 4125 54be 143d 9dbd 662a 5bbe
00000100: 9ed5 073f 39be dfbe f06b 32be d920 56be
00000110: 3a6e 4bbe 528e 17be d937 a5bd 0597 e3bd
00000120: f3aa ffbd ff47 0b3e 1756 aabd 04f0 dbbe
00000130: 307b 96be 7058 aebd 7844 29be 9f07 6bbe
00000140: 1d30 71bc ba0c 5bbe cf07 32be 3d80 d7be
00000150: b558 5bbe b8a8 3cbe 7e13 3fbe 303b 77be
00000160: 429b 0cbe b9fa 33bd a2e4 0dbe 1727 a3bd
00000170: 63b1 e0bc d6a6 4cbe 7f4b 843d 9734 edbe
00000180: 6372 b7be 618d 31be 8467 53be 77ff 2cbe
00000190: 2c42 9ebe 1b16 8dbe beb8 72bd 032d b2be
000001a0: 602c 31be b151 95bd b6c3 62bd 3ce7 93be
000001b0: fd8f 3abe e8c5 b6bd 0732 58bd 6fd6 27be
000001c0: 7fd0 42be 28e8 aabe 0317 afbd 9992 3dbc
000001d0: 9238 42be 1929 383d 1343 40be d8a0 cebd
000001e0: c4f3 59be 1bac 9dbe 4712 f43d ec74 d7be
000001f0: e4b8 1abe 3363 313d 3507 7a3e 67e2 5ebe
00000200: 8730 a4bd 12c8 b3be c6ae 8bbd ed3d bc3d
00000210: f293 2abe dc85 3abe c325 f2bd 434a ccbd
00000220: d285 33be 3e34 04be 646c 733d 132b ecbd
00000230: faaf b0be 1152 04bf 2435 cbbe bae2 4fbe
00000240: c1b1 76be 40ec 43bd f974 ab3d 3e84 7bbe
00000250: 2f9f 3abe 618b 5abe 7932 04be d992 b8be
00000260: 0965 d3bc d26f 47be 129b 99be 561c 2fbe
00000270: 7fe8 95bd c7ea 42be fe28 1fbe dafe c73e
00000280: b3e0 afbe ea6e 3bbe ed8e 35bc 8c81 02be
00000290: 5280 32be 2851 15be fa39 21be 8620 d5bd
-0.33091837 -0.0024163486 -0.06029968 0.013949242 1.0591365 0.017916951 -0.16067757 -0.041683674
-0.033812422 -0.16398592 -0.14862356 -0.008997822 -0.34659025 -0.119512506 -0.19806258 -0.0023405603
-0.105586074 -0.18527074 -0.13314334 -0.1922183 0.111874826 -0.09614316 -0.21844614 -0.114964426
-0.18292695 -0.007590977 -0.116806045 -0.1649798 0.105376 0.055111796 -0.15780579 -0.1343922
0.16615826 -0.14797378 -0.25455672 -0.046062294 -0.52855366 -0.11673171 -0.27887285 -0.8224864
-0.026975011 0.13221437 -0.18716225 -0.2551548 -0.1916177 -0.056867205 -0.3259672 -0.73987883
-0.10771955 -0.16378923 -0.16728029 -0.08531873 -0.26152906 -0.09592591 -0.052699726 -0.1221973
-0.03193255 -0.12911347 0.2166961 -0.18957283 -0.29743952 -0.20717336 -0.07677665 -0.21402892
0.5306033 -0.43699816 -0.17423987 -0.20910968 -0.19866267 -0.14800385 -0.08067293 -0.11112789
-0.12483778 0.13601683 -0.083172016 -0.42956555 -0.2939086 -0.08512962 -0.16530025 -0.22952126
-0.014720944 -0.21391574 -0.17385791 -0.42090026 -0.21420558 -0.18423736 -0.1865978 -0.24143672
-0.13731101 -0.04394028 -0.13856748 -0.0796644 -0.027428335 -0.19985518 0.06459712 -0.46329185
-0.35829458 -0.17339088 -0.20644957 -0.16894327 -0.3090986 -0.27555928 -0.059258215 -0.34799966
-0.17302084 -0.07290972 -0.055362426 -0.28887355 -0.1821899 -0.08924466 -0.052782085 -0.16390394
-0.19024847 -0.33380246 -0.08549311 -0.011570596 -0.18966892 0.04496107 -0.18775587 -0.10089272
-0.21284395 -0.3079537 0.119175486 -0.42081392 -0.15109593 0.043307494 0.24416812 -0.21766053
-0.08017068 -0.3511358 -0.06820445 0.09191499 -0.16657999 -0.18215126 -0.11823609 -0.09975102
-0.17531517 -0.12910554 0.05942954 -0.11531653 -0.3450926 -0.51687723 -0.3968898 -0.20301333
-0.24091245 -0.047832727 0.0837192 -0.24562165 -0.18224786 -0.21342231 -0.12909879 -0.36049536
-0.025805013 -0.1947625 -0.30001122 -0.17100653 -0.07319736 -0.19034873 -0.15542981 0.39061624
-0.3435112 -0.18304029 -0.011081439 -0.1274473 -0.17431763 -0.1458174 -0.15744773 -0.10406594

model.6.weight f4 [336, 168]
00000000: 9dd0 923c a063 0a3c 967f 9a3d 0194 c2bd
00000010: c98d 0dbd 5beb f4bd 79c3 573d 2404 af3a
00000020: 5ff8 d63b 17b4 b2bc 251b 88bc dd52 6dbd
00000030: 09bf 31be afc7 8ebd 7449 3e3d 9421 4f3d
00000040: 81ab 69bd a5b8 3abd 2e39 96bd e77d debc
00000050: 2323 41bd 678c acbd 2530 533d 4f1f 7e3d
00000060: 3b32 55bd 68cb 2dbd 5b00 8a3d c842 9d3d
00000070: 7035 a83c 4f1c 20be ed96 87bb 1baf a13c
00000080: 00a5 70be fc53 6dbd 32f0 e5ba b187 77bd
00000090: fe1b abbd a36b b13c 2dd9 4cbe 9a9b 0dbe
000000a0: 6410 6abc 6d37 a83d 0f37 af3a 2e43 54bd
000000b0: a9fb 6d3d fa0e 793d 75f5 8ebb dfc0 8b3b
000000c0: 7eb6 9bbd e03d 8e3c dde1 6dbd 7e03 afbd
000000d0: 3069 24bd 1ac9 12bd 0f3b 06bc 962e 2dbe
000000e0: 3f43 5ebd 1098 243d 64c5 01bd d028 cabc
000000f0: 4b7d dfbb 9d83 3cbd 857f adbd 39fe 333c
00000100: a438 98bc 0149 8bbd 60cc 0abe 275c 73bd
00000110: 10f6 aabb 9d67 92bd 980c 4f3d b253 d0bc
00000120: 59b4 d9bc 7e89 16bc a96a 91bd 8939 b1bd
00000130: 2d4d 32bb 106d b33c 91dc 56bd 970b 1a3d
00000140: 9624 d2bd 6cdd 9b3c f79d 85bd 4360 bdbb
00000150: 1f66 f73c 9dbf 68bd 4063 b2bd 2a6a 39bd
00000160: abda fe3c 9689 133d 2091 cfbd aaf9 e63c
00000170: 6f52 99bd 345d 243d 5f66 a33c 2e22 6bbe
00000180: 68c8 98bd 68ac 673d adbb b8bd 0ada dabc
00000190: 1807 263d 9372 4dbd 876b 923d 6be7 89bc
000001a0: 7c3f 8a3d d340 34bd 8698 633d f45f f33c
000001b0: edab 40bd 8c06 323d f4c3 933d 1d79 85bd
000001c0: da45 863d b1ab 02bd 50da 3a3d e271 7a3d
000001d0: 9399 3fbd 1d82 05bc 8e98 883c 2a48 f9b9
000001e0: d1a1 fc3b 3076 dcbd 7cb7 e5ba 0c2c e63b
000001f0: 6b4f 1f3d 0f5d 803d c056 f4bd 2077 81bd
00000200: 9601 373a 026f 80bc c6d9 e2bd a294 97bd
00000210: 58f7 6bbd 4234 fbbc 5a3d 803d b892 9b3c
00000220: f30f a2bc f888 6c3d 951f 9bba b97a 653d
00000230: c353 bfbd 7bb3 02be 5f57 4ebd 60f4 11be
00000240: d199 a63d dbf0 2f3d 048e 99bd 5c44 b2bd
00000250: ac9a b0bc 62ae e6bc bd06 3cbd f4d8 c03d
00000260: 1563 cb3c a57e 0e3d ef37 9ebd 3f7b 75bc
00000270: 29d7 e03d 2807 15bc 8c82 3cbd 3c4a c0bc
00000280: 7e79 84bd 1af3 c33d 9c7c 943d bd12 a1bc
00000290: dbbd 24bd 7139 b2bd 13a0 6cbd 5bcf 4c3d
000002a0: 1f8f aebc c0ea 98bd c283 9d3d c62f 02bd
000002b0: a4ca 63be 2f36 cbbd c6e9 473d e460 7cbd
000002c0: 796a 85bd c373 623d aad3 29bb 0579 7ebe
000002d0: 8a23 2fbf 6c76 043d 26e2 23bd d5c4 d2bd
000002e0: b2d1 a0bd 3233 fb3c 5afa 86bd ce85 75bd
000002f0: 80f5 663e 1168 c63e f2b4 71bc 4b34 633d
00000300: a9ef 73bb 8239 c13c 87a4 02bd cacb 5bbd
00000310: 1a2f bbbd bc3b 10bf d68d 8dbc 45f7 0dbd
00000320: 3e10 1fbf e8d7 10be 659d 6d3e baa9 523d
00000330: b5cc c5be 54f4 a0bd f43e f0be ca3d b83c
00000340: 4a53 7d3d ecc8 f83d f19a f6bc fd07 973d
00000350: 8468 9d3d ac9b 13be c468 3a3e eda3 113e
00000360: a062 c33d d0e8 72bc 870b 393e 4509 7d3d
00000370: e9fd 843e 1aee d3bc ad3d 903d 93f1 83bc
00000380: 2495 453c a83a 5ebd 73c8 893d 67e3 c53e
00000390: 0982 373d 7c90 663d a987 0f3e 31f0 42bd
000003a0: 3c3f 83bd 9a54 af3d e1d1 8dbd 25ca 11bd
000003b0: c41f 8ebc 2052 dd3c acdb 873d 39c1 853d
000003c0: 7e93 453d 058d c93c 5619 0dbb f34b 92bd
000003d0: 917b 1fbf ab13 c63c 0eb4 c03c 473f c83a
000003e0: bceb 743d eb04 3f3e ee89 a1bd 224b a43d
000003f0: faf3 233d af73 1bbd a6d9 1bbf 2dab 5abd
0.01792174 0.008446604 0.07543866 -0.09500886 -0.034559045 -0.11958953 0.05267665 0.0013352674
0.00656037 -0.02181439 -0.016614506 -0.057940353 -0.1735803 -0.069716804 0.04645677 0.050569132
-0.057048324 -0.045586247 -0.07335125 -0.027159644 -0.04715265 -0.08425217 0.051559586 0.062041577
-0.052049857 -0.04243031 0.06738349 0.07678753 0.020533293 -0.15635799 -0.004137865 0.019736817
-0.23500443 -0.057941422 -0.0017542897 -0.06043214 -0.083549485 0.02165777 -0.20004721 -0.13828889
-0.014286134 0.08213697 0.0013367849 -0.05182188 0.05810133 0.0608053 -0.004362757 0.0042649354
-0.07603167 0.017363489 -0.058076728 -0.08545588 -0.040139377 -0.035836317 -0.008192792 -0.16912302
-0.05426335 0.04018408 -0.031682387 -0.024677664 -0.006820356 -0.046023954 -0.08471588 0.010985904
-0.018581696 -0.06801034 -0.13554525 -0.059414055 -0.005217321 -0.07148669 0.05054912 -0.025430534
-0.026575254 -0.009188054 -0.07100422 -0.08653552 -0.0027206645 0.021902591 -0.052456442 0.03760871
-0.102608845 0.01902648 -0.0652427 -0.0057792976 0.030200062 -0.05682336 -0.08710337 -0.04526726
0.031110128 0.036019884 -0.10135102 0.028195221 -0.07486426 0.040127948 0.019946275 -0.22962257
-0.074600995 0.056560904 -0.09020171 -0.026715297 0.04053411 -0.050158095 0.071494155 -0.016833981
0.0675039 -0.044007134 0.05556538 0.02970884 -0.04703896 0.043463275 0.072151095 -0.06517241
0.06556292 -0.03190202 0.045618355 0.061143763 -0.04677732 -0.008148697 0.016674306 -0.00047546747
0.0077097197 -0.1076473 -0.0017525996 0.0070242938 0.0388941 0.062677495 -0.11930609 -0.063215494
0.00069811323 -0.015677933 -0.11076693 -0.07401396 -0.057608932 -0.030664567 0.06261702 0.01899086
-0.019782996 0.05774781 -0.0011834974 0.05602524 -0.09342148 -0.12763779 -0.050376292 -0.14253378
0.08134807 0.042954307 -0.074977905 -0.08704445 -0.021558128 -0.028159324 -0.045904864 0.094163805
0.02482752 0.034788746 -0.07725512 -0.014982997 0.109785385 -0.009095944 -0.046022937 -0.023472898
-0.06468485 0.09567852 0.0725033 -0.019662255 -0.040220123 -0.08702362 -0.057769846 0.050002437
-0.02130848 -0.0746665 0.076911464 -0.03178384 -0.2224527 -0.09922444 0.048806928 -0.06161584
-0.06514449 0.05528618 -0.0025913515 -0.24850853 -0.68413603 0.0323395 -0.040010594 -0.10291449
-0.07852496 0.03066406 -0.065907195 -0.05994206 0.22554588 0.3875127 -0.014752613 0.055469792
-0.0037221706 0.023586992 -0.031895187 -0.053661145 -0.09139843 -0.5634115 -0.017279547 -0.034659643
-0.6213416 -0.14144862 0.23204572 0.051431395 -0.38632742 -0.07859102 -0.4692303 0.0224904
0.06184701 0.12147698 -0.030103179 0.073745705 0.076859504 -0.14414853 0.18204027 0.14222689
0.095402956 -0.014826015 0.18070804 0.06177642 0.25974968 -0.025870372 0.07043014 -0.016106403
0.012059484 -0.054255158 0.06727686 0.38650057 0.044801746 0.056290135 0.14016594 -0.047592346
-0.064085454 0.08561058 -0.06924797 -0.03559317 -0.017349131 0.0270167 0.06633696 0.06530995
0.048236363 0.024603376 -0.0021529994 -0.071433924 -0.6229792 0.0241793 0.023523357 0.0015277647
0.059795126 0.1865422 -0.07887636 0.08022143 0.040027596 -0.03795212 -0.6087898 -0.053385902

model.6.bias f4 [336]
00000000: e3a8 03be 564c 9dbe 2fed 46be 5668 48be
00000010: 9b03 2e3b 4823 20be 56d9 ebbd 16e0 39bd
00000020: 9a5c 373e fa6f a7bd 5e58 78bc 2daf 1a3e
00000030: 5811 acbe 8235 e9bd f79f 2fbe 0dea b13e
00000040: 9cae dd3e 389b 91bc 4157 f8bd 048d 15be
00000050: 3147 803e 06d8 29bd 6289 3bbe 39ca 36be
00000060: 528d 2d3c 984d 9abd 1ce0 56be 239d aebe
00000070: bad1 a9be 8e39 85bd 6109 663e 23bb 14be
00000080: b742 c3bb 3982 993e 01ed dbbd 1db6 a93e
00000090: 1d5b 533e 9d54 72be a22d 4fbe 2cb8 15be
000000a0: 2585 99be 81ab 9fbe d2e8 0ebd 2277 24be
000000b0: 11fc afbc 179b 0ebe cec7 02bf 9fa0 093f
000000c0: 21ed 75be 5cf3 7bbe 7f88 66be e6ec 65be
000000d0: eac2 11bd 052d 153e db52 97be a621 08be
000000e0: c8d2 97be 9c94 44bf ada0 d5be 4dff fdbe
000000f0: d351 87be 8163 e6be 1d25 0bbe d01a 88bb
00000100: f752 8f3e ae95 37be 6507 a93d b5a0 77be
00000110: 33f5 56be 2a8d 11be 45cd afbd 8cf4 55be
00000120: c340 b8be 802d 3cbe 56a3 15bf c345 d5be
00000130: c993 4bbe a120 8dbe 7590 1abe 68e1 21be
00000140: 8ac4 2cbe 714a 29be 460f 75be e0e9 31bf
00000150: 5fd9 9bbe 5831 04be 1fa1 94be f2a6 a53d
00000160: 4651 b8bd f8e2 94bd fd43 2ebe 6d0d 04be
00000170: 698f d4bd 179d 09be cba7 033d dc1a 06bf
00000180: b57a 7d3e e490 063e 9bce a3bd 6bd5 65be
00000190: ce5e c3be b727 22be c447 283d 50af d3bd
000001a0: 85ff edbe b622 47be 794c f6bd a85b e5bd
000001b0: 9b2f 5fbe a12a 2cbe 96da 9bbe 4b00 1fbe
000001c0: 14e1 803e 577c 6e3e 4d47 e9bd b93a 18be
000001d0: 163b 283e aa5a 12bf bbdd 6ebe 0f8e 88be
000001e0: 08fe 5dbe ec41 b43e 54fb e1bd 9fa5 25be
000001f0: 02fb 58be ee2e 05bd a5cc b9bd 4477 003d
00000200: e7c5 663e 2617 b4be c07a b23c edcd b3be
00000210: f42c 143e e284 e0bd a502 dabd 8361 123f
00000220: e981 553e 1fe6 bb3d 65b9 733e 2eac 89be
00000230: d1e9 773d 97d9 573d 3342 86be d2b9 eb3d
00000240: e576 b1be ff97 26be ba5f c0be 8fc3 21be
00000250: 7fbc 37be 3b53 b4be e0ba 2e3e 9af0 713d
00000260: 7990 f5bd b388 6bbe 947f cd3e bcd1 6bbe
00000270: 8d3b 4bbe 93f6 e5bd 8446 01bd a22e 2e3e
00000280: bf52 3dbd fe38 c2be 194d 2fbe a406 17be
00000290: 4567 2dbe 7aa2 35be 8137 2c3f e529 a1be
000002a0: 31f6 4abe 9ee9 93be 93b9 a7be 2e10 af3c
000002b0: c6a5 043e 362f e237 bf58 69be a139 46be
000002c0: 5c06 863e f825 03be 2d49 653f e75f c0be
000002d0: 8480 12bf ebfc 88be 94a6 d43d 0335 09bf
000002e0: 7998 4abe 2176 1bbe 8104 5cbe 3c30 eabd
000002f0: c4d5 35be 0009 22be 4779 b9bd 933c 6dbe
00000300: 46d7 54bf 9ffe 08be 0377 1d3f dc1d 01be
00000310: 84ba ebbd 0ffa 38be 674d 7fbe a8e9 473e
00000320: 7d45 c7bc 5133 c1bd f167 23be 9968 643f
00000330: 4890 56be eb0b 16be f1d3 bcbd b27b 28be
00000340: af2a d4bd 3c84 30be 5ccb e1bc a2ce b43e
00000350: 6b53 0dbf 93a1 053c 7958 28be 39d5 1fbe
00000360: d64b d7bd 4901 853e 8a5b dbbd 9155 92be
00000370: be20 e93d 9729 89bd e6d6 dcbe 6264 01be
00000380: d2e9 01bf 2632 39be d73d 8cbd 0dd3 46be
00000390: 2b34 ab3e 669a a6be 8f0a e0be 8d1e 03bd
000003a0: a520 433e 4fdd b43d abab 523e ba16 3c3e
000003b0: 391d babe 679e 3bbe 3f9a e9be 3ea2 ccbe
000003c0: da00 25be dedd a53e 2b2a 39bd 5e2f 53be
000003d0: 9731 ee3e f0bd 4bbe 5c7c 6e3e 2814 19be
000003e0: e281 293f ab03 4fbe 6332 84bc b2df 893d
000003f0: b70d a9be 4cff b7bd 7125 52be c72d 2b3e
-0.12857394 -0.30722302 -0.19426416 -0.19571051 0.0026552442 -0.15638459 -0.11516063 -0.04537972
0.17906418 -0.08175655 -0.015157787 0.15105887 -0.33606982 -0.11387159 -0.17150865 0.3474888
0.4329728 -0.01777421 -0.12126017 -0.14604574 0.25054315 -0.04146578 -0.18314126 -0.1785058
0.010592775 -0.07534331 -0.20983928 -0.3410426 -0.3316782 -0.06505118 0.22464515 -0.14524512
-0.0059588808 0.29982165 -0.10738564 0.33146754 0.20640226 -0.2366509 -0.20232251 -0.14621037
-0.29984394 -0.31185535 -0.034890004 -0.1606107 -0.0214825 -0.1392635 -0.5108613 0.53760713
-0.24016239 -0.24604553 -0.22513007 -0.22453651 -0.035586275 0.14567955 -0.295554 -0.13294086
-0.29653 -0.7678926 -0.41724148 -0.49608842 -0.26429614 -0.4499779 -0.13588376 -0.004153587
0.27992985 -0.17928192 0.082533635 -0.24182399 -0.20991974 -0.14214006 -0.08584074 -0.20894068
-0.3598691 -0.18376732 -0.58452356 -0.41654786 -0.19880594 -0.27563956 -0.15094168 -0.15808642
-0.16871849 -0.16532303 -0.23931608 -0.6949749 -0.30439278 -0.12909448 -0.29029176 0.08088483
-0.08999877 -0.07269853 -0.17018123 -0.12895747 -0.10378916 -0.13438831 0.03214244 -0.52384734
0.2475384 0.13141209 -0.07998391 -0.22444694 -0.38158268 -0.15835463 0.041084066 -0.103361726
-0.46484008 -0.19446835 -0.12026305 -0.11199123 -0.21795504 -0.16813137 -0.30440205 -0.15527456
0.2517172 0.2328962 -0.11390553 -0.14866151 0.1642879 -0.5716959 -0.23326771 -0.26670882
-0.21678936 0.35206544 -0.11034265 -0.1617646 -0.21189502 -0.03251546 -0.09072236 0.03136374
0.22536431 -0.3517391 0.021787047 -0.35118046 0.14470273 -0.109628454 -0.10645036 0.5718004
0.20850338 0.091747515 0.23801191 -0.26889175 0.06052572 0.052697744 -0.2622238 0.11510052
-0.34661022 -0.1626892 -0.37573034 -0.15797256 -0.17943 -0.3521975 0.17063475 0.059067346
-0.119904466 -0.23001365 0.40136397 -0.23029226 -0.19846936 -0.11228671 -0.03156139 0.17009977
-0.04622149 -0.37934107 -0.17119254 -0.14748627 -0.16933925 -0.17737761 0.6727219 -0.31477275
-0.19820477 -0.28889173 -0.3275877 0.02137002 0.12953863 2.6963284e-05 -0.2278776 -0.19357921
0.26176727 -0.12807453 0.8956478 -0.37573168 -0.5722735 -0.2675546 0.10383335 -0.53596514
-0.19784726 -0.15181781 -0.21486093 -0.11434981 -0.17757326 -0.15823746 -0.09056335 -0.23167638
-0.8314098 -0.1337838 0.6150972 -0.12609047 -0.115101844 -0.1806414 -0.2493187 0.19522727
-0.024325127 -0.09433616 -0.15957619 0.89222103 -0.20953476 -0.14652984 -0.09220112 -0.16453436
-0.10359704 -0.17237943 -0.02756279 0.35313898 -0.5520541 0.008156198 -0.1644 -0.15608682
-0.105125114 0.25977543 -0.10710819 -0.28580907 0.11383198 -0.06697386 -0.43132704 -0.12635949
-0.50747406 -0.18085536 -0.068477325 -0.19416447 0.33438239 -0.32539672 -0.43758056 -0.032011557
0.19055422 0.08831274 0.20573299 0.18368044 -0.3635042 -0.18322144 -0.45625493 -0.3996753
-0.16113606 0.32395834 -0.04520623 -0.20623538 0.4652221 -0.19896674 0.23289627 -0.14949095
0.6621381 -0.20216243 -0.016137308 0.067321196 -0.33018276 -0.08984241 -0.20522095 0.16716681

model.8.weight f4 [168, 336]
00000000: 376d 98bc 54ed 9ebe 967d 7bbe 86ac 40bd
00000010: f5d7 313d ef3d 9dbc c3c2 debe 6502 aaba
00000020: 78f8 6fbc 6ed1 103e e357 1b3d 2662 8a3e
00000030: 2b7f 8ebd e3a5 c7bd 4c02 0cbd 8c28 7b3e
00000040: ab87 20be 5688 a7be 0adf 0ebc 58d1 adbd
00000050: 4437 26be 05f2 0e3e 725c a93d 3bae 7a3d
00000060: 0fd8 84bd 9a02 863d 1a01 84bc 71f4 80bc
00000070: 2666 2abc 9b2c 21bd e3df 103e e547 a6bd
00000080: 62a1 003c c8b3 5d3e d82d 31bc 619b 0f3d
00000090: 9f9a bebd 1204 39bd eee9 5fbd 9f56 74bd
000000a0: fa28 ac3d 38ef 84bd 32d3 39be 6e4c 433a
000000b0: 3e2b 4b3e 0efc a53d b021 8fbe 6b2f 9f3e
000000c0: 4a49 9fbe 887a 243d 2b3d c73a 3362 fbbd
000000d0: c6d9 ab3d 1625 bcbd 283b db3d 3cd7 37bd
000000e0: 3743 c23c 9d9b a5be 1794 a33d f469 3ebe
000000f0: be15 d43d 5c5d 1bbc 2b8f 3abe 79e9 11be
00000100: cd8e a4bd e647 c13b 94c6 373c 723f 1dbd
00000110: a2ab 5ebd 9022 a7bc e77b c9bd 21f0 04b9
00000120: d84c 90bb cc67 a8bd e95f 4b3d d920 cbbc
00000130: 9cda 20be 37bb 0ebd a4d4 6b3d c78f 41bd
00000140: 2776 fbbc a28b 4fbc dec8 41bd 23a2 93be
00000150: f498 a2bd 9f51 47bd 75f0 e5bd 3421 2fbe
00000160: f904 0abe 2450 b23c f0de b83d 8c16 0c3d
00000170: dd0c e2bc c6a0 89bd e81d 7f3e 3773 ab3d
00000180: 6e65 b83d e2a5 74bb 7bd9 70bc 5081 25be
00000190: cf86 9abd 62bd d5bb f8a2 61bd d096 b5bb
000001a0: a45b 0cbe 1527 b7bd 341f 813c 05a9 05be
000001b0: 9081 32bd b7c7 563c 3402 15be af8b 20bd
000001c0: 7211 d13e 97f4 b83d 9a80 21bd e70e 543c
000001d0: 2c7a 61be 6259 30be 63ec edbd a1af 25be
000001e0: 1f69 5e3c 4c46 36be 9537 a8bd 3dd7 ca3b
000001f0: 2618 00bc f206 0dbd 74b4 03bd 7017 61bd
00000200: a7eb e13d 3dce a9bd af67 8bbd 5fdf 18be
00000210: 00e2 de3c 3cf6 72bd 46d4 513d 442d 7c3d
00000220: b379 29bd 8b0a a73d 6796 2c3e 00cb 2f3c
00000230: 43de c93d e044 a7bd 9d49 4dbe 025a 05be
00000240: cc41 a9be 57ca 993d e75e b5bc 4d1d 063d
00000250: 40f6 56bd 82cc 32be 6b9b afbc 295e 27be
00000260: 1aa5 89bd 3ebd afbc e442 01be 59c8 303d
00000270: ff20 13bd 29ba 3a3c d19b 57bc 5f35 94bd
00000280: 3610 0ebd 6d75 b3be 3770 e2bb b2b1 113c
00000290: a8e0 9d3d 3227 4c3d 314c 913c 93b0 48bd
000002a0: 18f6 0ebc 75c8 11be 3d33 94be e485 98be
000002b0: 9fb4 c93d 2451 f7bd 64dd dcbd 54c7 aebc
000002c0: 1466 b03d cd7a e83c f4b3 193c 0895 0d3e
000002d0: 952a 83bd 0235 493d 91b9 f23c 931b 2dbe
000002e0: 5934 c3bd 9685 0abe 2356 9abb 9b9b a2bc
000002f0: 2552 a7bd d54a 893c ce3a 3ebc 9a64 12bd
00000300: 201c 18be b215 b13d de04 133e bd51 39be
00000310: 58fb 1bbd 3e80 b13a 8190 1ebc 1526 8ebd
00000320: 36c6 e9bc 7079 15bd d9d2 323d dc04 613e
00000330: e279 7f38 1f85 2ebd 6038 bebd 7db9 103d
00000340: 05ce d53b abff 673c f57a 25bc 5efb 16bd
00000350: 94b6 9f3d cbf3 e6be 4810 11bd 502e 3b3e
00000360: dff2 36bd cc2f 753e 0382 dd3d 308b 89be
00000370: 1e18 4e3e 77fe 60bc f7fc 03be 59a0 4dbd
00000380: 5348 c0bd 02dc 97bd bd18 c83c 3e6d a03c
00000390: 8fb3 dd3d 5350 f93d c270 51be 8322 5bbe
000003a0: ea65 043d 7c52 933d 5bb3 3e3e 5a81 2cbc
000003b0: 1441 a23c 5ea5 4e3e c383 2abd 7e80 4dbe
000003c0: c0bd 123d 5784 203e b1f0 333e 2ccb f43b
000003d0: 2346 1ebe b84c 1f3c 91a6 4abe c048 9cba
000003e0: 829d be3d 9f71 bfbc 9a26 3b3d c2dd adbc
000003f0: cd5d d7bd d7b8 273d 9cb3 96bc 3484 8ebe
-0.018606765 -0.31040442 -0.24559626 -0.04703953 0.043418843 -0.019194571 -0.43507966 -0.0012970684
-0.014646642 0.14142391 0.037925612 0.27028006 -0.06957849 -0.09748437 -0.034181878 0.24527186
-0.15676753 -0.32721204 -0.008720169 -0.08487195 -0.1623202 0.1395951 0.08269586 0.061201315
-0.064865224 0.06543465 -0.016113807 -0.015741559 -0.010400331 -0.03934918 0.14147906 -0.081191815
0.007850977 0.21650612 -0.010814153 0.03506029 -0.093068354 -0.045169897 -0.054666452 -0.05965292
0.08406253 -0.0649094 -0.18146971 0.00074500486 0.19840714 0.08104716 -0.2795539 0.31090865
-0.31110603 0.040155917 0.0015200725 -0.122745894 0.08391146 -0.09186761 0.107046425 -0.044882998
0.023713691 -0.32345286 0.0798723 -0.18595105 0.103557095 -0.009482708 -0.18218677 -0.14249219
-0.080350496 0.0058984635 0.011216778 -0.038390584 -0.0543629 -0.020402223 -0.098380856 -0.00012677956
-0.0044036917 -0.08222923 0.049652014 -0.024795936 -0.15708393 -0.03484651 0.057575837 -0.047256257
-0.030695988 -0.012667568 -0.047310703 -0.28834638 -0.0793933 -0.048661824 -0.11227504 -0.1710251
-0.1347846 0.02176673 0.09026897 0.03420119 -0.027594024 -0.06720118 0.24913752 0.08371585
0.09003721 -0.003733032 -0.014700289 -0.1616261 -0.07545244 -0.0065228203 -0.05508706 -0.00554166
-0.13706833 -0.08943001 0.01576195 -0.13052757 -0.04358059 0.013109139 -0.14551622 -0.039195713
0.40833622 0.09031027 -0.039429285 0.012943006 -0.22019261 -0.17221597 -0.11617353 -0.16180278
0.0135748675 -0.17800254 -0.082137264 0.006190209 -0.007818257 -0.03443045 -0.032154515 -0.054953992
0.11031275 -0.0829129 -0.068068855 -0.1492896 0.027207375 -0.05931686 0.05122783 0.061566606
-0.041375827 0.08156308 0.16854249 0.010729551 0.09856846 -0.08167434 -0.20047612 -0.13022617
-0.33058012 0.075092964 -0.02213998 0.032742787 -0.052480936 -0.17460826 -0.021436414 -0.16344513
-0.06720944 -0.021452542 -0.12623173 0.043159816 -0.03592014 0.011396923 -0.013159708 -0.07236742
-0.03468343 -0.35050526 -0.0069103497 0.0088924635 0.077088654 0.049842067 0.017736526 -0.04899652
-0.0087256655 -0.14236625 -0.28945342 -0.2978965 0.09848904 -0.12076023 -0.107844144 -0.021335281
0.0861322 0.028378868 0.009381283 0.13826382 -0.06404606 0.049122818 0.0296295 -0.1690505
-0.09531469 -0.13527521 -0.0047099753 -0.01984959 -0.08169965 0.016759316 -0.0116107 -0.035740472
-0.14854479 0.08646716 0.14357325 -0.18097587 -0.038081497 0.0013542247 -0.009678007 -0.06940857
-0.028536897 -0.036492765 0.04365811 0.2197451 6.091025e-05 -0.042607423 -0.092880964 0.035333145
0.0065248036 0.014160077 -0.010100116 -0.036860816 0.07798496 -0.45107874 -0.035415918 0.18279386
-0.044665214 0.23944014 0.108158134 -0.26864004 0.20126387 -0.013732544 -0.12889467 -0.050201748
-0.09388795 -0.0741501 0.024425859 0.01958334 0.10825264 0.12173524 -0.2045317 -0.21399884
0.032323755 0.07193467 0.18623106 -0.010528887 0.019806422 0.2018027 -0.041629564 -0.20068547
0.03582549 0.15675484 0.17572285 0.007470509 -0.15456443 0.009722881 -0.19790103 -0.0011923537
0.09307386 -0.023369608 0.04569111 -0.021223906 -0.10515938 0.04094776 -0.018396191 -0.27835238

model.8.bias f4 [168]
00000000: 041d b9be 103b 70be c4a6 4fbe c925 e63d
00000010: 320a babd 1d5d 213e 227f 83be 9772 813c
00000020: cc63 47be a366 21be 1164 19be 8343 a03e
00000030: 111a 11be 0bd8 253e ff40 10be f909 73bd
00000040: ad04 9fbd d65e 2abe 22b7 97be 79f8 f8bd
00000050: 1940 2abe f670 bdbe bf0e 1abe 7810 9fbd
00000060: 4706 d0bd 1755 9fbe ba1c ad3e 05c0 5abe
00000070: 31e1 a8bd 36b2 93be 0716 3abe 2633 86be
00000080: fb64 f7bd e5fd 2cbe 1919 8e3d 2f1d babd
00000090: 1cd9 373e 9a8b 44be 4cfa 53be 26ba 28be
000000a0: 7e49 d9bd 6f9b a9be 871b 84be 0977 79be
000000b0: f4b6 04be 5de9 753d 583b 9fbe 2de8 c9bd
000000c0: 7fa7 efbd 05e7 21be 6390 bb3c f335 27be
000000d0: 05da 48be add0 09be 451f 5bbe 904a 06be
000000e0: 4a80 76bd 6407 f9bd dcd5 92be cf5a 94be
000000f0: 9a0e 07be 4859 5c3b 7608 2fbe 44ad cfbe
00000100: d776 dbbd 1e5c 55be 63ff d7bd bea2 3ebe
00000110: 1938 42bd 4329 64bd c416 20be ebe1 c1bd
00000120: 2992 35bd c47f 36be 03e1 7cbe 15d8 85be
00000130: 9a32 8cbe 3dd4 50bd f08c 34be 60ec e3bd
00000140: b1cb 623b 03a3 72be 757f 8cbe 22d7 253f
00000150: 7457 2fbe 6bb3 97be 2c88 81bd 6a1f 6bbe
00000160: 5a5f 45be 174e 403c 815e c4bd bef4 75be
00000170: 4cb1 02be 363c d3bd a002 febd 2e15 21be
00000180: a659 9ebc 0276 51be 285c 4fbe 3a64 9f3e
00000190: 7fd7 ddbd 93d8 31be bc64 f3bd 799c 3abe
000001a0: fcd2 85be 09c6 143d 8114 55be 6cc4 823e
000001b0: 1f56 51be 6eb8 823c 9322 c2be 7f8f 7dbe
000001c0: 38ad 31be 4c16 923d 62a7 ecbd 4ff1 e5bd
000001d0: 350a 2bbe 938a 253e a158 8cbd 2051 5dbe
000001e0: c593 123f 7742 163f 7857 eabd b99f 98be
000001f0: 2cb7 5ebe 04c4 6ebe 305b 4dbe 8ece 41be
00000200: 3a18 4abe f0ef ecbe 4532 26be 3789 6dbe
00000210: 6a26 62be 63e1 94bd 70e3 bbbc b33d ec3e
00000220: a9bc a2be fb24 8a3e daf5 e4bd dd41 01be
00000230: b552 7dbd d160 ff3c 3aee ebbd 3c4b f1bd
00000240: 38ef d7bd d67d a8bd 1640 20be e7e3 b0bd
00000250: 650f fc3e 2ffa f3bd 8bb9 05be 526a 10be
00000260: 7d3d 84be 45d0 51be 6bdb 78bc dc6f 1ebe
00000270: af6c d13c 213e 50be 2876 d4be bb0b 223f
00000280: d825 22be 96df 40be f895 9c3e f303 41bf
00000290: 035f ab3e 2c94 79be bb24 0b3e 615e 6bbe
-0.3615495 -0.2346003 -0.2027846 0.11237676 -0.09083976 0.15758176 -0.25682932 0.015801711
-0.19471663 -0.15761809 -0.14979579 0.31301507 -0.141701 0.16195695 -0.14087294 -0.059335683
-0.07764564 -0.1663774 -0.29631907 -0.121567674 -0.16626014 -0.37000245 -0.15044688 -0.07766813
-0.10157447 -0.31119606 0.3381098 -0.21362312 -0.08246077 -0.28846902 -0.18172465 -0.26210898
-0.12079807 -0.16893728 0.06938381 -0.090875976 0.17953914 -0.19193879 -0.2070095 -0.1647726
-0.10609721 -0.331264 -0.25802252 -0.24361815 -0.12960416 0.060037006 -0.31099963 -0.09858737
-0.11701869 -0.15810783 0.022895997 -0.16329174 -0.19614418 -0.1345851 -0.21398647 -0.13114381
-0.06018094 -0.12159613 -0.28678787 -0.2897553 -0.13189164 0.0033622552 -0.17093071 -0.4056188
-0.10716026 -0.20835921 -0.10546758 -0.18616769 -0.04741678 -0.055703413 -0.15633684 -0.094669186
-0.044328842 -0.17822176 -0.2469521 -0.2614142 -0.27382356 -0.050983656 -0.17631888 -0.11129069
0.0034606273 -0.23694997 -0.27440992 0.6478139 -0.17123204 -0.29629073 -0.06324801 -0.22961202
-0.19274655 0.011737368 -0.09588338 -0.24019143 -0.12762946 -0.10314219 -0.124028444 -0.15730736
-0.019329857 -0.20455173 -0.20249999 0.31131154 -0.10832118 -0.17367773 -0.11884448 -0.18223752
-0.2613753 0.036321674 -0.20808603 0.25540483 -0.20443009 0.015957084 -0.37917003 -0.2476177
-0.17351234 0.07133159 -0.11555363 -0.112276666 -0.16703112 0.16166143 -0.06852842 -0.21612978
0.5725673 0.5869517 -0.114424646 -0.2980936 -0.21749562 -0.23316962 -0.20054317 -0.1892645
-0.19735804 -0.46276808 -0.16230114 -0.23196875 -0.22084966 -0.072695516 -0.0229356 0.46140823
-0.3178456 0.2698134 -0.11179705 -0.12622781 -0.061846454 0.031174095 -0.115200475 -0.11781928
-0.10543674 -0.08227126 -0.15649447 -0.08637219 0.49230495 -0.11912953 -0.1305906 -0.14103058
-0.25828162 -0.20489605 -0.015189032 -0.15472358 0.02556452 -0.203362 -0.41496396 0.6329915
-0.15834749 -0.18835291 0.30583167 -0.7539665 0.33470926 -0.2437293 0.1358823 -0.22985221
