checkpoints/korea-complex-4-200.pth (torch, 55567 bytes, 7 tensors)

model.0.weight f4 [42, 142]
000000 d7 2c 5f 3f 3e 6a ba be 8a 57 d4 3d fc 92 4f bc
       0.87177795 -0.3640918 0.10368259 -0.012669321
000010 7b 25 a4 3e 38 2d 70 bd ff 45 22 3e e2 67 28 3f
       0.32059845 -0.058636874 0.15847014 0.6578351
000020 ba cc 1a bf d3 ba c2 3e 39 45 a2 be 65 b2 a8 be
       -0.6046864 0.3803316 -0.31693438 -0.32948604
000030 97 78 cd 3e 9b ec a2 3d f6 91 0a bf e8 78 55 bf
       0.40131065 0.07955285 -0.5412897 -0.83387613
000040 2b 13 1f bf 6d f8 3d 3f 48 a0 7e 3f a6 ac 78 3f
       -0.62138623 0.7420719 0.9946332 0.9713844
000050 e9 70 5b 3e 4f 42 d3 3e 5d ab 3b 3f 98 ef 6c 3f
       0.2142979 0.41261527 0.73308355 0.9255309
000060 02 51 de be 2f de c5 3e 6f 0c 29 3c f3 a7 4d be
       -0.4342118 0.38646075 0.010317906 -0.20083599
000070 36 f3 db be 08 87 26 3f aa 92 99 be 0d e3 e5 3e
       -0.42958993 0.6504979 -0.29994708 0.44899788
000080 2c ea 9a 3f f4 99 02 bd 39 5c 48 bd 2f b7 45 be
       1.2102714 -0.031885102 -0.048916075 -0.1930816
000090 b5 2e ce bd ca 9a e4 bd d8 d2 83 be 7b f3 03 bf
       -0.100675024 -0.11162336 -0.257468 -0.51543397
0000a0 e2 80 fe bd eb bc 1d 3f 33 4d 99 3e e7 61 2c bf
       -0.12426926 0.6161639 0.2994171 -0.6733689
0000b0 3b da 83 3e 20 98 0e bf 2c 36 66 3f dc ce 7c be
       0.25752434 -0.55700874 0.8992641 -0.24688286
0000c0 18 f9 b7 3e db 75 78 3e 27 03 2d bf 13 a8 ee be
       0.3593223 0.24263708 -0.67582935 -0.46612605
0000d0 c1 74 0a bf 96 0e 07 bf f2 61 cf bd d2 7b 5d be
       -0.540844 -0.5275663 -0.101261035 -0.21629265
0000e0 77 43 cd 3e 78 bf 32 bf 6c 7e d4 3f 38 1a 5d 3f
       0.40090534 -0.6982341 1.6601081 0.8636813
0000f0 71 99 32 3f 0b 62 8e 3f 67 0f 7a bc f8 e1 7a 3f
       0.69765383 1.112367 -0.015262461 0.9800105
000100 e7 8f 1f 3f 4d e5 b2 be cc ee 8e 3f bb e0 c8 be
       0.6232895 -0.34940568 1.1166625 -0.39233956
000110 8f 9c 86 bf 32 c6 6e bf 91 e0 04 bc 87 61 b4 3e
       -1.0516528 -0.9327117 -0.008110181 0.35230657
000120 1f bf 18 bf 29 59 9d 3e 47 46 e7 3e 93 39 0f 3e
       -0.5966663 0.30732086 0.45170805 0.13986807
000130 c4 a5 4e 3e ea f7 c5 bc 68 77 14 be d2 e7 26 be
       0.20180422 -0.024166066 -0.14498675 -0.1629937
000140 98 aa c8 bd 0b 08 2f 3c 7a 0d 96 3e 25 a0 46 3d
       -0.09798163 0.01068307 0.29307157 0.04849257
000150 1d e3 9f bf cf aa fb 3d 6c 0d 24 bf 42 1f 4b bf
       -1.2491184 0.122884385 -0.6408298 -0.7934457
000160 8a 10 29 3e 31 c4 9d 3e 27 cb 29 be 43 38 e3 3f
       0.16510215 0.30813745 -0.16581403 1.7751545
000170 6b 1e 1e 3d 76 ac 0f c0 6b 18 75 bf b9 53 aa bd
       0.038603228 -2.2449012 -0.95740384 -0.0831675
000180 6e 79 fa 3e 8c 1e 0c 3f 65 3a 5a 3f fd 5b 68 bf
       0.48920768 0.5473411 0.85245353 -0.9076536
000190 e4 f1 25 40 66 71 8a 3f 78 f9 7c 3f 29 6a 41 40
       2.5928888 1.0815856 0.9881816 3.0221045
0001a0 32 6e 17 3e ec 2c 36 bf 90 de 02 3d 3a 5b 38 3f
       0.1478813 -0.71162295 0.031950533 0.720142
0001b0 36 cc bf 3e c0 44 14 3e 8a 36 06 bd f3 ef 40 be
       0.37460488 0.14479351 -0.032766856 -0.18841533
0001c0 37 95 d4 3d 8f d6 d3 3e 17 d3 13 40 e2 3d 93 3f
       0.10380023 0.41374633 2.309759 1.150326
0001d0 86 94 82 bf 05 0e 8d 3e 87 78 10 3e aa 50 a3 3d
       -1.0201576 0.2754976 0.14108478 0.0797437
0001e0 c9 34 41 be 61 2d 01 3e 3f 44 81 bf ba 22 51 40
       -0.18867792 0.12614967 -1.0098952 3.2677445
0001f0 1a be 8d 3e d7 84 78 3e 68 dd 48 40 21 4f 1c 3e
       0.27684098 0.24269424 3.1385136 0.1526456
000200 62 75 da be 16 ba 23 3f 7c 57 92 3d 04 3d f6 3f
       -0.4266768 0.6395582 0.071455926 1.923737
000210 5d fb 85 bf 94 62 f6 3e 2f 47 fb 3e f3 eb 52 40
       -1.0467335 0.48122084 0.49077746 3.2956512
000220 9f b4 46 3d 0f ca 52 bd be 65 89 3e 11 93 bc 3e
       0.048512097 -0.05146223 0.26835436 0.36830953
000230 b4 02 bf bb 4e c3 1f 3e 53 96 44 bd 87 63 f4 3c
       -0.0058291797 0.15601847 -0.047994923 0.029832615
000240 13 bf 47 bd c6 7d 67 3d c2 95 01 3d d5 82 2d bc
       -0.048766207 0.05651643 0.03163696 -0.010590275
000250 fe 7d 22 3d 3d 4a d8 bc cd 70 88 bd e5 e2 45 3c
       0.039670937 -0.026402587 -0.0666214 0.012078022
000260 b0 e0 90 bd 38 98 76 bd 5b 83 97 bc 58 c4 1c 3d
       -0.07074106 -0.06020376 -0.018495252 0.038273185
000270 b1 eb 9d bd 8e 69 b0 3c a7 3f 5f 3d 68 e5 2b 3c
       -0.0771097 0.021534707 0.054504063 0.010491706
000280 87 67 23 3d 38 15 24 3d ff 84 8a 3c 95 14 96 3c
       0.039893653 0.0400593 0.01690912 0.018320361
000290 3e 5e 04 3d 9e 44 e4 3c 5c b1 46 3d 29 04 a2 3c
       0.03231644 0.02786475 0.048508987 0.019777374
0002a0 ae 39 73 3d 32 41 b0 bd be 55 c8 3c cb 44 b4 bd
       0.05938118 -0.08606185 0.024454948 -0.08802184
0002b0 78 e6 67 bd c4 39 f3 bc 13 50 66 3d 32 bc f7 bc
       -0.056616277 -0.02969063 0.05622871 -0.030241106
0002c0 70 05 9b 3b df a6 57 bd 38 43 ae 3a 6b 97 f4 3c
       0.004730873 -0.052649375 0.0013295179 0.029857358
0002d0 f9 9a 86 bd f6 80 85 3d a9 7f 70 3d 5d ad 56 3d
       -0.065725274 0.06518738 0.058715496 0.052411426
0002e0 2f 7a 5a 3d 01 b0 1d 3d 22 26 fc bb 98 6b 91 bd
       0.05333918 0.03849793 -0.0076949755 -0.071006
0002f0 3a 0a 4e 3d 58 21 ac bd 0b ba 9a 3c 90 3b 70 bd
       0.05030272 -0.08404797 0.01888754 -0.058650553
000300 3a de 0f 3d a7 db d2 ba 83 b8 88 3d f0 1d 0f bd
       0.03512404 -0.001608719 0.06675818 -0.03494066
000310 e2 1f ce bc c0 e0 28 3d 33 0d 93 bb a7 22 55 bd
       -0.025161687 0.041229963 -0.0044876575 -0.052035
000320 19 4e 95 3d 8a 18 df bb 15 f1 75 3b fb 5d 86 bd
       0.072902866 -0.006808345 0.003752773 -0.06560894
000330 ca 1a 28 bd aa b2 a5 bd 29 6d a5 bd 10 f4 01 3d
       -0.041041173 -0.08090718 -0.08077461 0.031726897
000340 81 29 cd 3c 0d 1f a0 ba ff 09 69 bc 49 36 04 3d
       0.025044205 -0.0012216285 -0.014223575 0.032278333
000350 c4 50 9f bd 67 68 2a bd cc 41 82 3d fb 20 60 3b
       -0.07779077 -0.041603472 0.06360206 0.0034199345
000360 3d 5e cc 3c a1 7e 54 bd 58 ae d3 3b ce 30 ab bc
       0.02494728 -0.051878575 0.0064599924 -0.020897295
000370 71 52 81 bd 7a fc 96 bd 71 3d 1b 3d 6c 15 8f bd
       -0.063145526 -0.07372375 0.037900392 -0.06986508
000380 e2 b7 6b bd df 3c a5 bd 8b 2b 57 bd 8e 6b a8 bd
       -0.05754841 -0.08068251 -0.05253176 -0.082236394
000390 8f 59 7c 3d 52 59 92 bd 4a ff 67 bd c7 9c a4 3d
       0.061608847 -0.07145943 -0.056639947 0.080377154
0003a0 e8 49 8e 3c 43 25 8d 3d b7 f8 1a 3d fc 3a a4 3d
       0.017369226 0.06891873 0.03783485 0.08019063
0003b0 c2 99 1f bd 07 23 34 bd 65 8c 26 bd 62 a9 ad bd
       -0.038964994 -0.043978717 -0.040661234 -0.08479573
0003c0 68 11 e0 bc 85 9b 3d 3d b1 51 35 3d 45 40 2a 3c
       -0.02735205 0.046290893 0.04426736 0.0103913
0003d0 e7 76 8a bd 01 3d 79 3c e5 95 2c 3a 0c 0a 26 bb
       -0.0676096 0.015212298 0.00065836153 -0.0025335578
0003e0 43 80 09 3c 97 20 8f 3d 10 d5 d4 3c 38 82 6e bd
       0.008392396 0.06988638 0.025980502 -0.058229655
0003f0 8f 8f 88 3d 5e 58 38 bc 5b eb f6 bc bf 93 eb bc
       0.06668007 -0.011251537 -0.030141523 -0.028756974

model.0.bias f4 [42]
000000 28 1d d9 bc cf 2a 3c bd 15 06 0e bb ed be f1 bc
       -0.02650316 -0.045939263 -0.0021671106 -0.029509986
000010 be 45 56 bd 33 5f fe bd ef b1 ce bb 34 90 b2 3c
       -0.052312605 -0.124205016 -0.0063078324 0.021797277
000020 11 76 18 bd 5f dd b6 bd 92 ff ed 3b f9 5a 32 be
       -0.037221972 -0.08928942 0.0072631324 -0.17417516
000030 5f 80 a8 3d f6 ac ba bd d1 0e 1a bd 6c ce 9a bd
       0.0822761 -0.09115021 -0.037611786 -0.07558903
000040 5f 53 a4 bd 7f 91 37 3d 9c d8 98 bd 62 13 d7 bc
       -0.08023714 0.04481649 -0.0746319 -0.02625436
000050 5d d3 ff 3c 37 e0 8a bd 21 3f d2 bd d3 18 69 bd
       0.031228716 -0.06781047 -0.10265947 -0.05690844
000060 ae 7d 59 3d 0c 94 8c bc 98 38 82 bd 19 29 23 bd
       0.053098373 -0.017160438 -0.06358451 -0.039834116
000070 22 8d 8d bc 9f de 8d bd 9c 12 71 3d a3 9f cc bd
       -0.017279211 -0.06927227 0.058855638 -0.09991386
000080 73 fb bc 3d f5 ca de bc 77 2c 98 3d 9d ee 83 bd
       0.09227648 -0.027196387 0.07430356 -0.06441996
000090 c2 6f b8 3b 8b 75 ea bd ff f5 50 bb 16 7a 01 be
       0.005628557 -0.11448201 -0.0031884906 -0.12644228
0000a0 69 af b1 3c 92 b1 81 3d
       0.021690087 0.06332697

model.2.weight f4 [84, 42]
000000 b4 2c 29 be 72 65 2c bc 51 7a 8c 3c 0b be 16 3d
       -0.16520959 -0.010522233 0.017148169 0.036802333
000010 fa 3b 56 3d 5a 1f a7 bd fe 4c fd bd d3 0c 14 3e
       0.05230329 -0.08160277 -0.12368201 0.14458017
000020 de 6e e3 bc 66 1e 53 be e8 44 ac ba c0 f3 bc bd
       -0.027762827 -0.20617065 -0.0013143094 -0.09226179
000030 2a 37 8a be a3 ea c1 bc 6a d8 e7 bd 2a d9 38 bd
       -0.26995212 -0.023671454 -0.113205746 -0.04512898
000040 b4 a0 4d bd 30 93 3b 3e b6 4d 6c bd 7c 2b 00 be
       -0.050202087 0.18317866 -0.0576913 -0.12516588
000050 12 cc bd bd db fc 7e bd 00 f1 71 3c 15 8a 4b bc
       -0.09267439 -0.06225286 0.0147669315 -0.012423058
000060 bb 61 95 bd 61 c5 cd bd d2 44 11 be 5a 30 c9 bd
       -0.07294031 -0.10047413 -0.14186409 -0.098236755
000070 87 7e d4 bd 2a cd 82 bd 53 6a 40 be e2 5a 09 be
       -0.10375696 -0.06386788 -0.1879056 -0.13413575
000080 94 e7 b9 3d d6 3c 08 be d3 88 82 bd f8 6a 10 be
       0.09077373 -0.13304457 -0.063737534 -0.14103305
000090 05 b6 0c be 0c dc 88 3c 3c b7 fc 3d 2e 2e 21 bd
       -0.1374131 0.016706489 0.12339637 -0.03935068
0000a0 84 6c eb bd 70 5d df 3d 9e 20 0c be 87 da 9c 3d
       -0.11495307 0.10906494 -0.13684317 0.07658868
0000b0 61 b1 c1 3d 00 7e 80 bd db a9 18 be 71 a2 1d be
       0.094576605 -0.062740326 -0.14908545 -0.15393998
0000c0 fa a1 3e 3c bd 53 bc 3d b1 dc fd bd 71 5c 31 3d
       0.011635298 0.09195659 -0.12395609 0.04330105
0000d0 48 63 3e 3d 02 83 ac bd 2b 83 b1 bd b3 ab 2f be
       0.0464814 -0.08423425 -0.086675964 -0.17155342
0000e0 f4 a5 20 3d c7 5c b8 3d 4e d4 cb bc e4 03 fa 3d
       0.039220765 0.09002071 -0.024881508 0.12207773
0000f0 4c 5a 1c be a4 e2 dd 3d 78 07 ea bd a6 47 08 be
       -0.1526882 0.10834244 -0.11427206 -0.13308582
000100 ab 11 bb 3d c6 50 34 3b 82 fb 17 3d 2d 0a 85 bd
       0.09134229 0.0027513965 0.03710509 -0.064960815
000110 d3 f2 c1 bc 0b a4 07 3c f9 08 16 be 08 43 03 3e
       -0.023675358 0.008278857 -0.1465186 0.12818539
000120 21 66 9e 3b f4 2f 3b bd b2 53 21 bd c0 56 9f 3d
       0.004833952 -0.04570003 -0.03938646 0.07780218
000130 1a ac fb bd e8 9b 14 be a2 1e d0 bb 6a c5 8b 3d
       -0.12288685 -0.14512599 -0.006351308 0.06824763
000140 91 6e c9 bc 41 a4 97 bd ff 00 2c bd e9 d8 f1 3c
       -0.024588855 -0.07404376 -0.041993137 0.029522376
000150 ff a9 ce bd 38 e1 b6 bd cd ed e7 bd 1b 55 d0 bd
       -0.10091018 -0.08929676 -0.11324654 -0.101724826
000160 07 6f a4 bd 44 62 57 bd a7 da 9c bd 77 22 de bd
       -0.08028989 -0.052583948 -0.07658892 -0.108464174
000170 49 85 25 be 34 59 8c bd 3c f5 b2 bd 0a 3a 03 3d
       -0.16164126 -0.06852952 -0.08738181 0.032037772
000180 e2 19 a2 3d 19 92 16 3e 02 2c 5c bc 24 72 e8 bc
       0.07915093 0.1470417 -0.013438227 -0.028374739
000190 a2 b4 de bd 6c 7b 0c be fb bf ba 3c 80 75 5f bc
       -0.10874297 -0.13718957 0.022796622 -0.013638854
0001a0 0e 5b 11 bd b9 bb 7c bc c5 32 02 3e 71 24 fb 3d
       -0.035487227 -0.015425616 0.1271468 0.1226281
0001b0 bc 55 1a be 18 46 21 3e b9 4a c3 3d 46 54 fb bd
       -0.15071768 0.15749395 0.095357366 -0.12271933
0001c0 6e 9d ea bd 29 60 ea 3d 4f 0c ff bd 05 d1 b2 bd
       -0.114558086 0.11444122 -0.124535196 -0.087312736
0001d0 df 26 94 3d fb 8e b2 bd 7e 8a b1 bd f2 cc 16 be
       0.072339766 -0.087186776 -0.086689934 -0.14726618
0001e0 ed 67 b4 3d 40 8a ad 3c 72 23 df bc d6 72 05 3e
       0.08808885 0.021184087 -0.027238581 0.13032088
0001f0 a6 37 0a 3e 6a fd 4e 3d 38 da d0 bd 04 31 84 3d
       0.1349779 0.050534643 -0.10197872 0.064546615
000200 57 1c 42 be f1 05 28 be c7 63 45 3c c9 34 00 be
       -0.18956123 -0.16408516 0.012047715 -0.12520136
000210 bf a4 95 bd ab 33 a2 bd 29 56 4d be 32 3e 48 be
       -0.073068134 -0.07920011 -0.20052399 -0.19554976
000220 db 1f bd bd 9e 0d 9d 3b e0 a0 29 bb ea 55 b5 bd
       -0.092345916 0.004792883 -0.0025883242 -0.088542774
000230 42 ca 9b 3d e2 3a c3 3d 5a 7f c6 3d 02 0e bc 3c
       0.07606937 0.095327154 0.09692259 0.022955898
000240 a0 b6 50 3d 6e cf f0 bb 29 f0 a9 3d 43 11 f0 bc
       0.050955415 -0.0073489463 0.0829776 -0.029305106
000250 10 2b 81 3d 68 d6 ff 3d 3e 24 f0 bd ae 5b f9 3c
       0.06307042 0.124920666 -0.11725663 0.030439224
000260 55 0e ac 3d 82 13 af 3d 05 4f 55 3d ca ba 3c 3e
       0.08401171 0.08548643 0.052077312 0.1843063
000270 96 d7 2d be ca c1 33 be 15 70 01 3d 42 81 06 3e
       -0.16976771 -0.17554393 0.03160103 0.13135245
000280 7c 8e f5 bd 6a be 62 bd f8 42 be 3d 68 0c 05 be
       -0.11990067 -0.055357374 0.09290117 -0.12993014
000290 ad 50 a9 bd ef f8 a9 3d b8 2a 51 bd d5 91 ec 3c
       -0.08267341 0.082994334 -0.05106613 0.028878132
0002a0 04 48 ea 3b 0f 45 18 bd a9 95 e1 bc a9 2e 52 bc
       0.007149698 -0.037175234 -0.027537184 -0.012828507
0002b0 9b e3 be bd 5c e8 1a 3e 47 40 b5 3d 53 c7 c9 bc
       -0.09320756 0.151277 0.088501506 -0.024631178
0002c0 fd 20 dd bd a0 83 a6 3d 2b 7a 54 bd 58 d0 f4 bd
       -0.10797308 0.08130574 -0.05187432 -0.11953801
0002d0 8a 9d 93 bd 57 a1 9b bd fc 2d 03 bd 79 69 fa 3d
       -0.072077826 -0.075991325 -0.032026276 0.122271486
0002e0 e5 65 b6 bd e0 1e ed bd f4 9b 04 be af 2a 1d 3e
       -0.089061536 -0.115781546 -0.12950116 0.15348314
0002f0 80 48 ab bc c9 ea a9 3d 4c d9 b4 bd 2e db 16 3d
       -0.020908594 0.08296735 -0.088305086 0.03683012
000300 fb 9a 09 3e 78 2b 02 3e b2 07 1a be c3 eb 15 3e
       0.13438027 0.12711895 -0.15041998 0.14640717
000310 51 c5 e9 bd d6 92 36 3d 21 ff e7 bd 8d a1 65 bd
       -0.11414588 0.044573627 -0.11327959 -0.05606227
000320 c2 10 9d 3d 1f 96 0c 3e f3 2a 06 bd 9e 2a 28 bd
       0.07669212 0.13729142 -0.032755803 -0.041056268
000330 6f 07 d5 bc 48 c9 16 be 45 7b 95 bd 7d 4f 0c be
       -0.026004521 -0.1472522 -0.072989024 -0.13702197
000340 0c 6c e3 3d e3 60 52 bc 96 df bc bd 23 45 bb 3d
       0.11104593 -0.012840482 -0.09222333 0.09144046
000350 a4 da d2 bd 6f 96 e4 3d a0 15 4f be aa 39 59 3c
       -0.10295609 0.111615054 -0.20223093 0.013258377
000360 a3 ae 10 be 14 2d 07 3e 1d 02 12 be ff 65 29 bd
       -0.14129119 0.1320079 -0.14258619 -0.041357037
000370 74 c5 63 3d a9 43 7e bd 7a e3 31 bd 92 20 63 bb
       0.055608228 -0.062076245 -0.04342983 -0.0034656865
000380 a7 41 e3 3c e4 49 7d bd 4c a4 11 be ac c2 0f 3d
       0.027741266 -0.061838046 -0.1422283 0.035097763
000390 93 71 81 3d 7d 59 49 3d 67 3a 95 bd cc 3f 24 be
       0.06320491 0.04915761 -0.0728653 -0.16039962
0003a0 12 2e bf 3d 46 9c 13 3d 11 3b 86 3d 5c 62 9b bd
       0.09334959 0.036037706 0.06554235 -0.0758712
0003b0 bd 14 16 3d d3 66 5d 3d 62 9d 9f bd 39 46 72 3d
       0.03664087 0.05405314 -0.0779369 0.059149
0003c0 39 0a 25 bd 72 77 42 be 5e d5 f8 bc 68 05 ef bd
       -0.040292952 -0.18990877 -0.030375179 -0.11670953
0003d0 eb ff 2b 3e 18 d4 b6 3d fd 72 dc bd f6 e7 11 be
       0.16796844 0.089271724 -0.1076412 -0.14248642
0003e0 e6 04 be bd 7f 0f ba bc 68 f7 0e 3e 8a 0d d5 bd
       -0.09278278 -0.022712467 0.13961565 -0.10402973
0003f0 59 0f b6 bd 71 17 50 bd 1b 76 1a bf 29 32 36 bc
       -0.08889646 -0.050803605 -0.60336465 -0.011120358

model.2.bias f4 [84]
000000 63 c9 bf bd ca 47 78 bc e3 60 a1 3d 2d 59 6b 3a
       -0.09364583 -0.015153835 0.07879808 0.0008977827
000010 de 05 ed 3d ac 0e 65 bd 8a 2d 43 3f 45 ef 52 be
       0.11573385 -0.055922195 0.7624136 -0.20599087
000020 ed 84 b1 bc 4f 31 fe bd 8a 4e 10 3f 08 20 d3 be
       -0.02166983 -0.124117486 0.5636984 -0.41235375
000030 a2 d7 02 3e 25 5a 05 be b2 7e 0e be 35 66 0b be
       0.1277757 -0.13022669 -0.13915518 -0.13613208
000040 c5 8e f1 be b9 c7 a5 3d dc d7 c1 3e 16 5e 67 bd
       -0.47179237 0.08094735 0.3786 -0.05648621
000050 35 6a dd 3a e8 27 a5 bd fa ca af 3d 84 61 e9 be
       0.0016892614 -0.08064252 0.085836366 -0.4558221
000060 64 c9 0b be f4 92 25 3d 2c 14 90 3e 13 cb 41 be
       -0.13651043 0.04042335 0.2814039 -0.18925123
000070 b0 42 80 bd d8 69 06 be 5a 05 f7 bd fb 50 90 bd
       -0.0626272 -0.13126314 -0.120615676 -0.07046696
000080 c2 6f 13 bf 82 6f 17 3f 75 0a 8a bd ad 8b 8b be
       -0.57592404 0.5915452 -0.06740276 -0.27255002
000090 a0 c0 c7 bd 7c 1a b7 bd 9b 30 d2 3e e5 d6 e3 bd
       -0.09753537 -0.08940598 0.41052708 -0.11124972
0000a0 26 ae 43 3c a7 54 1d 3f b4 ce 00 bc 90 d2 c5 be
       0.011943376 0.61457294 -0.007861782 -0.3863721
0000b0 18 ad cd bc b4 e6 c1 3e f4 df 9e 3e 1e 40 36 be
       -0.025106952 0.37871325 0.31030238 -0.17797896
0000c0 18 31 10 3d bc 81 1c 3d a0 ba c4 3e 3a b2 24 be
       0.03520307 0.03820966 0.38423634 -0.16083613
0000d0 3d 73 9a 3e bd 58 e5 bd f5 cf a7 be 4d e7 c1 3e
       0.30166045 -0.11198566 -0.32775846 0.3787178
0000e0 be dc 7c bd 64 8a 96 3d 81 f7 05 be e7 ec 28 be
       -0.061733954 0.07350615 -0.13082696 -0.16496621
0000f0 7e 03 a1 be e6 73 cd 3d 4d 24 5b bd 81 45 dc 3d
       -0.31447977 0.100318715 -0.053501416 0.10755444
000100 e9 ec af 3d ca 37 53 bd 57 6d 0b be b9 bc a8 bd
       0.08590109 -0.051566876 -0.13615929 -0.08239121
000110 e3 38 15 be 63 d3 17 bf 3f 2a b9 bd a4 81 33 be
       -0.14572482 -0.59306926 -0.09041261 -0.17529923
000120 75 4d 0c be bf 03 f8 bd 70 29 d8 bd bf 34 a8 be
       -0.13701423 -0.121100895 -0.105547786 -0.32852742
000130 6e 1c 60 bd 5f 86 fb bb f6 6f 65 be 27 94 22 3d
       -0.054714613 -0.0076759304 -0.22405991 0.03969207
000140 87 8e 7f bb 3c f1 3d 3d 3a 0f 87 be 95 32 42 3e
       -0.0038994865 0.046372637 -0.26378804 0.18964608

model.4.weight f4 [42, 84]
000000 58 30 d2 bc 16 ea 95 3c 3d 87 dd 3c 18 e8 de bd
       -0.025657818 0.018300097 0.027042026 -0.10884112
000010 43 86 97 bd 19 68 a2 3d 8c a0 42 3c 32 85 29 3c
       -0.07398655 0.07930011 0.011879098 0.010346698
000020 41 be 43 bd da a6 13 be 75 8a 82 3c 15 36 97 bd
       -0.047788862 -0.14419118 0.015935162 -0.07383362
000030 37 6c 54 3d fd ce 6f bc ef 6c d7 bd 96 ef d2 bc
       0.051861014 -0.014636752 -0.10518824 -0.02574901
000040 45 72 01 be 06 6d 28 bc ae cb 81 be 6f ce 2a be
       -0.12641247 -0.010279899 -0.25350708 -0.1668031
000050 13 1f f7 bd 8f e4 80 bd 8e ba 81 be 3f db 43 3d
       -0.12066474 -0.06293594 -0.25337642 0.04781651
000060 17 4d c4 bc a7 e8 a9 bd 8a 93 12 be ce e8 a0 3d
       -0.02396254 -0.08296328 -0.14314094 0.07856904
000070 bb c4 d1 3c e1 03 89 3c 8b 28 d7 bd 8d 14 9d 3d
       0.025606504 0.016725482 -0.1050578 0.076699354
000080 e9 55 85 be cd 0d 8c bc 86 1f 43 3d fc 6b fb bc
       -0.26042107 -0.017096424 0.047637485 -0.03069114
000090 1f 56 82 be c3 73 b9 bc 28 0c f5 bd 03 73 94 3d
       -0.2545633 -0.022638207 -0.11965209 0.07248499
0000a0 f7 cf 82 3c 68 5d 37 be 5f ea c5 bd 5a 58 a7 bb
       0.015968306 -0.17906725 -0.09663843 -0.005106968
0000b0 7a 81 21 be 23 a2 33 be 2f b7 20 be 81 87 c0 bd
       -0.15772048 -0.17542319 -0.15694879 -0.09400845
0000c0 74 a1 40 bd 77 9a 0a 3d 21 d4 fc bd 3e 88 28 3d
       -0.047028974 0.033838715 -0.12345148 0.041145556
0000d0 70 dd dd bd 32 0e 17 be 8b e6 39 bd 97 5d c5 bd
       -0.108332515 -0.14751509 -0.04538588 -0.096369915
0000e0 64 ce 37 3d a4 4e fc 3b fb e7 53 bd ea 52 fc ba
       0.044874564 0.0076998044 -0.051734906 -0.0019250785
0000f0 b2 fd a3 3b 02 6d 5d 3c e4 96 83 bd 99 aa 37 be
       0.005004608 0.013514759 -0.064252645 -0.17936172
000100 5d 03 b6 3d de 2d aa 3c 8d ee 8f 3d 77 a4 11 3d
       0.0888736 0.020773824 0.07027922 0.035557237
000110 21 8d 1e bd 1c e3 ce bd a8 80 99 3c 69 8f e5 3c
       -0.03870881 -0.101019114 0.018738106 0.028022485
000120 11 7d 32 3d 74 83 09 bd 84 ec 84 3d 5a 40 89 be
       0.043576304 -0.03357263 0.06490424 -0.2680691
000130 ed 8f 8a 3d 6c b0 44 be 0e f2 49 3d d3 6a 81 bd
       0.06765733 -0.19207925 0.049303107 -0.06319203
000140 1b 9f 6d bd b3 ee b0 3d f2 cc 20 3d 1a 58 b7 3d
       -0.058013063 0.08639278 0.03925795 0.08952351
000150 65 3e 9f bd 6f 5f 8f 3d 3a f6 44 3d 61 17 cb 3d
       -0.07775573 0.070006244 0.048086382 0.099165685
000160 fe 06 6d bd 85 25 bd bd 4b 37 1e 3c 28 b3 c9 bd
       -0.057867996 -0.09235672 0.009656738 -0.098486245
000170 51 7d c0 bd 89 bd c5 bd 56 39 1c be ef e5 4c bc
       -0.09398902 -0.096552916 -0.15256247 -0.012505992
000180 ca 40 97 3d 3e 3f 54 3d 97 0a 83 3d 40 1e cd 3c
       0.073854044 0.051818125 0.06398504 0.025038838
000190 b1 aa f0 3c a9 a2 81 be b8 fc d4 bd c5 63 18 3e
       0.029378267 -0.25319412 -0.10399765 0.14881809
0001a0 d2 6d fc bb 26 f8 ae bc 15 f1 dc bc a2 1e 3f bc
       -0.0077035213 -0.02135856 -0.026970426 -0.011665018
0001b0 fd 06 48 bd b0 09 5f bd 38 1c 11 3d 9d fa 13 bd
       -0.04883479 -0.054452598 0.035427302 -0.036127675
0001c0 d4 92 0f be 07 ef b8 3d 7e 90 c5 39 22 85 2f bd
       -0.14020854 0.09029966 0.00037682423 -0.042851575
0001d0 92 fb 06 be 7d 8f a9 bd 67 4e 05 be 46 da 7f 3d
       -0.13181904 -0.08279321 -0.1301819 0.06246402
0001e0 6c a8 ce 3c fc 10 95 bd a8 5e 62 b6 ca db 28 3d
       0.025226794 -0.0727863 -3.3731721e-06 0.041225232
0001f0 54 63 5f bc 5c 78 01 be 40 ac db bd 6d e4 65 bd
       -0.0136345215 -0.1264357 -0.107262135 -0.056126047
000200 b3 7a b2 bd 10 10 f5 bd a0 f3 50 be d9 86 b4 3c
       -0.08714809 -0.11965954 -0.20405436 0.022036957
000210 d0 fc 03 3c c7 54 e3 bb 11 44 89 3d 07 8f 4d 3c
       0.008055881 -0.0069375965 0.06702436 0.012546307
000220 d0 38 85 bd 91 d6 00 bd 1a b4 8d bd 2f e1 92 bd
       -0.06504977 -0.031454626 -0.06919117 -0.071718566
000230 d5 72 89 3d 50 49 b4 bd 84 5d 42 bd f9 bd 11 bd
       0.067113556 -0.08803046 -0.047452465 -0.035581563
000240 16 56 f0 bd 94 f8 07 3d 68 e0 06 bc f0 25 99 bc
       -0.117351696 0.033196047 -0.008232214 -0.018694848
000250 06 0a d6 bc 43 17 f6 bc 32 c2 ac bc ff d9 0c bd
       -0.026127826 -0.030040389 -0.021088693 -0.034387585
000260 d8 9f 15 be ae de e9 bc 71 51 80 3d 27 50 7a bd
       -0.14611757 -0.028548565 0.06265534 -0.061111595
000270 fe 80 13 bd b2 01 02 be 7f 4d 14 3d b4 2d 87 3d
       -0.03601169 -0.12695959 0.03620672 0.06600514
000280 20 f5 b5 bb a4 b4 44 be ec 48 4b 3d 3b 71 eb bd
       -0.005552903 -0.19209534 0.04963009 -0.114962064
000290 fa 41 e2 bd 60 8a 0b be 97 ba bf bd cf d4 37 bd
       -0.1104774 -0.13627005 -0.09361761 -0.044880684
0002a0 00 91 01 3d d5 e2 d9 3c 33 a9 e0 bc 49 a9 86 3c
       0.031632423 0.02659742 -0.02742443 0.016438143
0002b0 91 96 25 3d 73 35 9b bd ca c0 04 3e 66 7f ee bc
       0.040426794 -0.07578554 0.12964168 -0.029113483
0002c0 02 28 fa 3d 33 32 62 bd 65 40 2e be 06 a2 b8 3e
       0.12214662 -0.055223655 -0.17016752 0.36061114
0002d0 92 46 7e be 14 99 84 bd de 06 d8 3d d4 29 83 3d
       -0.24831608 -0.0647451 0.10548185 0.064044625
0002e0 71 40 a0 bd f0 53 ab 3c b9 c8 de 3d af 6c 28 bd
       -0.07824791 0.020914048 0.108781286 -0.041119274
0002f0 7f ec a0 bd 00 83 45 bd cb 5c ff bd 77 02 59 3e
       -0.07857608 -0.048220634 -0.12468871 0.21192347
000300 1e 5b 9e 3d 77 09 bb be 5b dd 47 bf b3 5a 53 3d
       0.07732223 -0.3653066 -0.78072137 0.05160017
000310 bf 21 a7 3c a5 b1 c3 bc 0b 73 a9 bd b0 09 35 bd
       0.020401834 -0.023888418 -0.08273896 -0.04419869
000320 94 36 ca be f5 b3 c0 3d 6a e3 04 be 5b c2 3e bd
       -0.39494765 0.09409324 -0.12977377 -0.04657207
000330 f4 a5 79 be 12 41 d6 3d 99 61 1a bf 52 8e 66 3d
       -0.24379712 0.1046163 -0.6030517 0.05628807
000340 d2 f7 80 bd f9 38 7a 3e 7f e3 9c bd bc 61 ef 3e
       -0.06297268 0.24435796 -0.07660579 0.46754253
000350 1f dc 48 bd 12 6d 6b 3e 35 cc 3b 3e 52 ba f5 bd
       -0.04903805 0.22990826 0.18339618 -0.119984284
000360 1f 08 69 bd d2 5c 21 3d 01 31 83 be 8a 4e c6 bc
       -0.05689251 0.03939516 -0.25623325 -0.024207372
000370 13 46 61 be a5 bd ee 3c f3 48 62 3c e3 65 c8 3d
       -0.21999387 0.029143164 0.013811338 0.09785058
000380 77 77 47 bd 3d 08 e1 bc 37 9d 35 bd c8 69 a5 3c
       -0.048697915 -0.027469749 -0.044339385 0.020192042
000390 b9 37 e9 3e 84 cd 80 3e 7b f0 3f bd 42 02 b6 3e
       0.45550326 0.25156796 -0.0468602 0.35548598
0003a0 d2 f9 f0 ba 04 da db 3d 9b 01 cf 3d 90 ab 5a bd
       -0.0018384999 0.107349426 0.10107728 -0.05338627
0003b0 92 9b 65 bd 45 92 06 be 4c 4c 4e 3d 56 cd 4f bd
       -0.056056567 -0.13141735 0.05036573 -0.050732933
0003c0 ba 06 a5 3e 17 5f 8c bd f4 fa 0c 3e 1f 96 53 be
       0.32231694 -0.068540744 0.13767606 -0.20662735
0003d0 bc be ee 3c 29 7a 90 3b 80 4a f4 3c 68 23 fc bc
       0.029143684 0.004409094 0.02982068 -0.030778602
0003e0 09 2d 67 3b ae 84 82 3d 6a d2 b5 3c 50 2c 10 bf
       0.0035274646 0.06372963 0.02219506 -0.56317616
0003f0 54 3d 02 3d b7 cd 8f bd 9c 8d 2f bd c1 a7 ec bd
       0.03179677 -0.07021659 -0.04285966 -0.11555434

model.4.bias f4 [42]
000000 a8 25 7b be 3b d7 1e bd a4 b1 83 3f f1 ba 7f bc
       -0.24526083 -0.03877948 1.0288587 -0.015608535
000010 5f ec 07 3d b1 90 0d be 5f b6 28 be f0 a1 5b be
       0.033184405 -0.13824727 -0.16475819 -0.21448493
000020 c1 19 23 bd 76 e6 a6 3e 0b f1 1f bd 5b 86 ce 3e
       -0.039819483 0.32597703 -0.039048236 0.4033688
000030 59 3e 8e 3d e8 fe 3f 3e 82 12 19 be c7 34 a2 3e
       0.069454856 0.18749583 -0.14948466 0.3168089
000040 39 48 b5 3d 2b a9 6a be d5 2a 53 3c 62 83 66 be
       0.08851666 -0.22916095 0.01288863 -0.22511056
000050 f1 dd 7c bd d5 9c 93 be d2 c2 80 3c f1 36 7a be
       -0.061735097 -0.2883059 0.015717898 -0.24435021
000060 e8 42 9d bd b0 bf d1 bd 09 e6 a7 be 26 37 36 be
       -0.07678777 -0.102416396 -0.3279269 -0.17794475
000070 bc e7 a0 be f6 1c 88 be ec a1 4b 3d 3f d5 32 3c
       -0.314268 -0.26584595 0.049714968 0.0109151
000080 13 a7 58 3b 89 b2 3f 3d 8b 2a 56 be c3 07 e3 ba
       0.0033058568 0.046801124 -0.20914666 -0.0017321039
000090 8e af 2a be d6 2e 1d 3e b6 76 89 be 56 cd 30 be
       -0.16668531 0.15349898 -0.26848382 -0.1726583
0000a0 cc df 08 3f 69 90 4a 3f
       0.53466487 0.791266

model.6.weight f4 [1, 42]
000000 0f 1e 1b 3c 0f d5 c4 bc 4e d2 3b 3e ad 48 93 3b
       0.009467616 -0.024027376 0.18341944 0.0044947476
000010 9a e7 3c bb fa 8c cc bc e4 81 98 3d 83 6e 3c 3d
       -0.0028824569 -0.024969567 0.0744665 0.04600383
000020 f5 80 f5 bc 91 d7 0f 3e 52 1e a2 3d 3d 28 94 bd
       -0.029968718 0.14047076 0.079159394 -0.07234237
000030 da 7c 97 3d e7 c5 12 be 31 a4 0d be 58 31 ab bd
       0.073968604 -0.14333306 -0.13832165 -0.08359021
000040 e1 f3 35 bd 26 ab 8a bc fb 6e 72 3d ae ca d6 bd
       -0.044422034 -0.016927313 0.05918787 -0.10487877
000050 2c 8a b6 bd 52 56 44 be d3 e6 7e bd 48 f6 fe 3c
       -0.08913073 -0.19173554 -0.06223185 0.031123295
000060 1c fd a0 bb b2 4f 6b bd fb 20 ef 3b 6b 4f f9 3b
       -0.0049129855 -0.05744905 0.0072976328 0.0076083443
000070 03 b8 bb 3c 85 fe 3e be 62 6e 8e bb 7b 82 11 3d
       0.022914892 -0.18651779 -0.0043466548 0.035524826
000080 fa 32 5e bd e2 82 17 bc dd 30 cb bc 55 a0 a0 3c
       -0.054247834 -0.0092475135 -0.024803573 0.019607702
000090 d1 ef 83 3e 58 27 9a 3d 37 bd 45 3e b9 b5 c4 3d
       0.25768903 0.075270355 0.19310461 0.09604973
0000a0 e1 c8 84 bd 25 e1 85 3d
       -0.06483627 0.065370835
