checkpoints/korea-basic-2-200.pth (torch, 11807 bytes, 3 tensors)

model.0.weight f4 [42, 59]
00000000: 84ea da3e da02 143e aaf1 1d3d 7bbf 303d
00000010: a569 043e 1564 223d 2946 0c3b f891 c63c
00000020: 3b52 183d 74c1 223e 8a3a 10be f75f 483d
00000030: 5904 033f 85fc b43e e98b 103f 36c1 883f
00000040: b5bc a03e 7644 103f 55a7 ed3b 0725 73bd
00000050: e3bb a43d 56b8 4bbc 67d4 5a3e 4b19 8ebc
00000060: 0c97 b43d 4d34 de3d a8a1 5fbe 5dad 703e
00000070: 73ae 073d e814 f7bd a81e 55bd 2427 27be
00000080: a5b4 55be 6c74 d53d 84ca 5bbd ab13 2bbe
00000090: 68cd 22be 9a31 28bc 0fa4 f5bd 09f6 093e
000000a0: 62b8 0c3f 5a37 513e e27e 963e 3087 4f3c
000000b0: 76b2 7d3c 8794 7b3d 626e 683b ac12 5fc0
000000c0: 6207 1740 6674 efbd c4c3 463d c5b6 9240
000000d0: a415 0f40 80ec c83e 1bc5 41be 6f73 493f
000000e0: 68b1 513d 611d 213d 5537 3f3e faa4 87bf
000000f0: c61e 37be 05d7 dc3e 9225 8a3e 7905 6fbe
00000100: c0d0 613e 9ce2 83be 251c bc3e 165d 323f
00000110: 4ded 01bf b9fc 493e 51fa a9be 61f2 d13d
00000120: e7af f83d e17b 6fbf b33e 40be 40b5 943e
00000130: 8306 b3be 01d7 723e c12b 373e 1dc7 293f
00000140: 4205 86bd 6302 d53e 38bf 87be 952a 57be
00000150: a115 89be 4736 97be 4cad 593d 53b6 ef3b
00000160: bab7 423e 0765 b93d 9668 893f eaab 4c3f
00000170: d507 45bf 9e50 fcbe 5464 0c3e efe8 ecbe
00000180: 260b 453d 3822 33bf c022 95be 7264 11be
00000190: 6e93 f63d 3786 2dbf 9b83 34bf a88c f23e
000001a0: 2450 36be 97c5 b4be 9247 ce3c 0ab4 24be
000001b0: 7902 093e 527d 3bbd de69 dc3e 0010 84bd
000001c0: 54b9 b7bb 3d88 56bc 186e ab3e 39e6 a23d
000001d0: d598 f5bd 8bf2 a33e 501c 023b 9ed9 2dbd
000001e0: 5ad7 6e3d 7e43 f1bd 86ac 8f3d 5224 a5bd
000001f0: bcc9 76bd d0d5 933d 5b25 dc3d 8b24 9a3d
00000200: 68fa 70bd f75a 48bd 6d83 ba3d 7dc5 393a
00000210: a9ae cdbd 9658 b2bd acd9 d13b 47e7 eebd
00000220: 8709 01be b3c5 dabd 6f1c 293d 732a e0bd
00000230: c77d 893c 8a91 1fbd a1db 5a3d d9f6 94bd
00000240: 10f5 8d3b 6a89 febd c583 143d f876 31bd
00000250: b457 71bd d45f 903d 2fc1 d43d 8807 4cbc
00000260: e483 b9bd d448 a5bb c24a 8d3d 525b 3c3d
00000270: 618e 62bb 6853 733d 9d02 37bd 0430 ffbb
00000280: c3fe f4bd 918b 26bb 33b9 cebd fa32 fd3a
00000290: 9403 d6bd 4aec cbbc 71be 92bd afc7 2bbd
000002a0: 42f5 02bd aa49 e03d dd12 e4bb 8d4d d23d
000002b0: b79f 82bd 94ce 933d bdb0 b9bd fb58 c53b
000002c0: abb9 623c eb72 d13d d249 07be 4ce7 b83d
000002d0: 318e b1bd 3e9d d93d f469 3d3c af6f 9bbd
000002e0: a992 0dbe 8442 603c 108f 3b3d e27f b7bd
000002f0: 5f17 b8bd 9c07 bebd ce05 333d fe8c ba3d
00000300: 0386 07bc 4403 3ebd 7bed b1bc b710 e5bd
00000310: 2c41 acbd f364 debd df1d c13d f3da 993d
00000320: 8d98 e93d 7858 dcbd 2739 83bd 5f8b 89bd
00000330: 9554 c63c c380 1abd ffbf 0bbe 5401 903d
00000340: 045a 05be 82ba d13c edfe 5cbd db16 cfbd
00000350: 6989 c3bd c57c ac3d a6ed e8bd 46a8 89bd
00000360: 6c9e 3f3d 57bc 8c3d ee6e ebbd 581b 00be
00000370: bd19 94bd ae27 233d 3548 95bc 9a78 0a3d
00000380: dd01 40bd a92d f0bc d11e 673d 73cd e0bd
00000390: 07c4 02be b2f2 4c3c 86d9 0b3d da0f 90bd
000003a0: e876 4d3d 1a61 9b3d 9ea0 a93b 91f2 4bbd
000003b0: 6f34 dc3d 8b47 713d e483 9abd 4015 4fbd
000003c0: da8b 883d 3bda c4bd 6c63 863d 2cb6 73bb
000003d0: 8551 30bd 2142 983d e6ef dabd 9b30 d1bd
000003e0: a659 f43d aa38 f6bd daf2 583c b4e9 103d
000003f0: 6209 3d3d a81a 623d b38c d13c c658 5cbd
0.42757046 0.14454213 0.038560547 0.04315136 0.12930925 0.039646227 0.0021404123 0.024239525
0.037187796 0.15894109 -0.14084831 0.048919644 0.5117851 0.35348907 0.56463486 1.0683963
0.31393972 0.56354463 0.0072526135 -0.059361484 0.08043649 -0.012434086 0.21370088 -0.017346045
0.088178724 0.10849819 -0.2183901 0.23503633 0.033125352 -0.120645344 -0.05203119 -0.16323525
-0.20869692 0.10422596 -0.05365993 -0.16706721 -0.15898669 -0.010265732 -0.11994182 0.13472761
0.54968846 0.20431271 0.2939368 0.012666509 0.015484443 0.061420944 0.0035466184 -3.4855146
2.3598256 -0.11692123 0.04852654 4.5848107 2.2356958 0.39242935 -0.18922846 0.7869176
0.05119458 0.03933466 0.18673451 -1.0597222 -0.17882833 0.43132797 0.2698179 -0.23341931
0.22052288 -0.25758827 0.36740223 0.6967329 -0.5075272 0.19725312 -0.3319879 0.10251308
0.12142926 -0.935484 -0.18773918 0.29044533 -0.34965906 0.2371483 0.17887785 0.6631945
-0.065439716 0.41603383 -0.26513076 -0.21012338 -0.26774314 -0.29533598 0.053143784 0.007315436
0.19015399 0.090524726 1.0735042 0.7994982 -0.76965076 -0.49280256 0.13710147 -0.46271464
0.048106335 -0.6997409 -0.29128075 -0.14198473 0.12039839 -0.6778292 -0.70513314 0.47372937
-0.17804009 -0.35307 0.025180612 -0.16084304 0.1337985 -0.04577381 0.4304952 -0.06448364
-0.0056068096 -0.013094005 0.33482432 0.07954068 -0.11992041 0.32020983 0.0019853301 -0.042443864
0.058310844 -0.11780451 0.07015328 -0.08063568 -0.060250983 0.07218516 0.107493125 0.07526501
-0.058832556 -0.048914876 0.09107099 0.0007086618 -0.100430794 -0.08708303 0.0064041223 -0.116652064
-0.1260129 -0.106822394 0.041286882 -0.109455965 0.016783608 -0.038957156 0.05343211 -0.07273645
0.0043321922 -0.124285534 0.036258478 -0.043326348 -0.05892153 0.07049528 0.10388409 -0.012452967
-0.09058359 -0.005044082 0.068990245 0.045985527 -0.0034569728 0.059405714 -0.044680227 -0.0077877063
-0.119626544 -0.0025412778 -0.10093918 0.001931756 -0.10449901 -0.024892945 -0.0716523 -0.04193848
-0.031972177 0.1095155 -0.0069602565 0.10268698 -0.063781194 0.07217136 -0.09066913 0.00602257
0.013838212 0.10226997 -0.13211754 0.090284914 -0.08669699 0.10625695 0.011560906 -0.07589661
-0.13825478 0.013687734 0.045790732 -0.089599386 -0.08988833 -0.09278795 0.043706708 0.091089234
-0.008271697 -0.046389833 -0.021719685 -0.11184829 -0.08410868 -0.10859098 0.094295256 0.075124644
0.1140605 -0.107590616 -0.06407385 -0.06716036 0.024210254 -0.037720453 -0.1364746 0.07031503
-0.1302262 0.02560163 -0.053954054 -0.10111781 -0.09547693 0.084222354 -0.11373453 -0.06721549
0.046781942 0.068718605 -0.114957675 -0.12510431 -0.07231472 0.039832763 -0.018222908 0.03380642
-0.046876777 -0.029318647 0.056425873 -0.10976686 -0.12770091 0.012509035 0.034142993 -0.070342734
0.050162226 0.0758688 0.0051766178 -0.049791876 0.107521884 0.05890612 -0.075446874 -0.050557375
0.066672996 -0.09611937 0.06561932 -0.003718744 -0.043046493 0.07434488 -0.10690288 -0.10214349
0.119311616 -0.120225266 0.013241494 0.035379127 0.046151526 0.055201203 0.025579786 -0.0537956

model.0.bias f4 [42]
00000000: ac49 dabe dd5d 6cbe c38d ba3d fbc6 b6bc
00000010: e90a d1bd 0c01 1b3e 031f ec3b 29b3 2a3c
00000020: dfb9 583f 54a7 1b3e 93d3 6a3f 171d 433c
00000030: 1849 4b3d 9992 a8bc 3475 90bd 7a13 1cbd
00000040: 9d0e 5bbf a231 9bbf 3732 053d 2a63 f9bc
00000050: 80f3 72bd 03a6 8c3c 38bb 533c 7875 d33a
00000060: d068 95bf 7de7 8f3f a063 0dbe 201a 37bd
00000070: 0d78 c5bd 08da e03c e158 2dbe f33b cebc
00000080: 0e74 e43d 9131 803d e110 62be d8e1 22bd
00000090: b04a a63d 417b 12be 36a8 75bc d3c7 84be
000000a0: 24ae d03c 0ea0 c73e
-0.42634332 -0.23082681 0.0910907 -0.022311678 -0.10207159 0.15137118 0.0072058453 0.010418692
0.84658617 0.1520055 0.91729087 0.011908791 0.049630255 -0.020577716 -0.07053605 -0.03810451
-0.85569173 -1.2124522 0.03251859 -0.030442793 -0.05931425 0.017169004 0.012923054 0.0016133031
-1.1672611 1.124252 -0.13807535 -0.04470265 -0.096420385 0.027447715 -0.16928436 -0.02517507
0.11154948 0.06259454 -0.22076751 -0.039766163 0.08119714 -0.1430483 -0.014993718 -0.25933704
0.025473662 0.389893

model.2.weight f4 [1, 42]
00000000: 44e7 3a3e 5460 073f 9b03 fbbd 8b75 88bd
00000010: d7e4 133e 7bb8 0ebe 527c dc3c a912 223c
00000020: c676 c73d c568 c93e b8d4 1abe c927 5d3d
00000030: 119b c03d 2837 a93d a328 733c 4fb2 efbb
00000040: 1a26 023e d94e 253e 9cc8 ccbd 6552 06bc
00000050: cad8 d53d b313 ebbd c79a c3bc 54ca e4bd
00000060: bd7f 153e ce04 00be d358 fcbd 7d02 0fbe
00000070: 459e 20bc 73c9 50bd 4fa1 383b bb91 793c
00000080: 9e02 bbbb 9c31 103e 2faa 11bc 4001 863c
00000090: 162d cf3e 2fec 56bd 4160 ecbd 3fd8 d53e
000000a0: 7d27 c53d 819e 27be
0.18252283 0.5288136 -0.12256547 -0.066630445 0.14442764 -0.13937561 0.02691475 0.009892144
0.09739451 0.39337745 -0.15120208 0.05399302 0.094045766 0.08262473 0.0148412315 -0.007314957
0.12709847 0.16143359 -0.09999201 -0.008198355 0.1044174 -0.11478367 -0.023877515 -0.111714035
0.1459951 -0.12501833 -0.123216294 -0.13965793 -0.009803359 -0.050973367 0.002817232 0.015232499
-0.005707099 0.14081424 -0.008890673 0.016358018 0.40464085 -0.052471336 -0.115417965 0.41766545
0.096266724 -0.16369058
